models/compressed_float32/model_CNN.tflite (tflite, 62584 bytes, 8 tensors)

sequential_2/conv1/BiasAdd/ReadVariableOp f4 [16]
-0.0007221334 -0.00147673 -0.023392309 0.006762698 -0.019633193 0.018987834 -0.027267091 -0.0034822684
-0.009324802 0.01830467 -0.00909723 -0.017026732 -0.043946102 -0.036327265 -0.0011731418 -0.06166775
00000000: 8d4d 3dba d68e c1ba 3aa1 bfbc 9f99 dd3b
00000010: cad5 a0bc 608c 9b3c 3c5f dfbc c536 64bb
00000020: 0ec7 18bc adf3 953c 8c0c 15bc a57b 8bbc
00000030: d400 34bd e6cb 14bd 1bc4 99ba 5397 7cbd

sequential_2/conv2/BiasAdd/ReadVariableOp f4 [8]
-0.008889889 0.0060652685 -0.041940883 -0.015924985 0.043526992 0.035053562 -0.014830768 0.15634452
00000000: e6a6 11bc 29bf c63b 34ca 2bbd 1d75 82bc
00000010: 5c49 323d 5394 0f3d c0fc 72bc c718 203e

sequential_2/conv1/Conv1D f4 [16, 1, 80, 1]
-0.08615863 -0.038771298 0.011309085 0.009897316 0.029175945 -0.0028412396 0.053550065 0.0453672
-0.029937785 -0.003098483 -0.074976504 0.06153215 0.070172094 0.025662623 -0.08379702 -0.09173333
-0.017035356 0.0111457445 -0.06733051 -0.04589392 -0.11603606 -0.065437086 -0.05119383 -0.026721787
-0.07403243 -0.13845356 -0.0354011 0.025358623 0.016478457 -0.07003586 -0.14705305 -0.043564066
-0.04619413 0.043660212 -0.07173736 -0.03635398 -0.056216467 0.0610119 0.048293054 0.032885183
0.016357288 -0.003762288 -0.0078606885 0.02018108 0.01805783 0.092982575 -0.012480467 -0.0062106946
-0.036561977 0.075968966 0.025647387 -0.028388044 -0.077229224 -0.05750336 0.061281193 0.102147326
0.13090238 0.09928347 0.0036608137 -0.0506657 -0.061951887 -0.04371356 0.06567452 0.11213161
0.11692779 0.03574571 -0.008232138 0.039295077 0.032409865 -0.009297831 -0.013679009 -0.015421363
0.03316862 0.015110594 0.03345457 -0.05053461 -0.020321924 -0.049434103 0.025298629 0.03424065
-0.088042125 -0.108129315 -0.11356092 -0.014284001 -0.06058815 -0.06681019 -0.048794936 -0.052575726
0.07937972 0.07514016 0.07866483 -0.010049492 0.016212279 -0.059726134 -0.066550076 -0.08777489
0.00082684634 0.0711215 0.00482426 -0.061999965 -0.040386993 -0.07064223 0.020038389 0.010466061
0.0635946 -0.056850128 -0.12917702 -0.10037715 0.034136258 0.10373076 0.05287857 0.0217003
-0.019343764 -0.030040503 0.023309207 0.110350266 -0.003231037 0.037224174 -0.019003607 0.08344912
0.07954275 0.035540927 0.029930932 -0.01568821 -0.023104124 0.054128263 0.05044949 0.11649969
0.14814585 0.054645 -0.008395319 0.0046670446 0.07795854 0.069353804 0.073923185 0.04570644
0.0119753545 -0.082529426 -0.09689115 -0.01928333 -0.0051409374 -0.026068993 -0.067985415 -0.07155672
-0.03599952 0.00644387 -0.094879314 -0.05538575 -0.007819545 -0.0016419659 -0.043958478 -0.11992266
-0.10529173 -0.006267131 -0.057963643 -0.0024332008 -0.09212553 -0.057051383 0.041127868 0.047447503
0.07783596 0.01822136 -0.060577795 -0.09515949 -0.09960114 -0.0926842 -0.009192932 0.14451206
0.02141582 -0.0190157 -0.0422174 0.07048063 0.06419905 0.037664946 0.045352254 -0.011313213
-0.027480884 0.01225991 -0.007159692 0.06952724 0.14147815 0.07299941 -0.021113005 -0.03660696
0.13124573 0.13624406 0.028349884 -0.04296365 0.0049786265 0.094141975 0.049380824 0.04740275
-0.0012361928 0.04480609 -0.04486757 -0.13882354 -0.036692787 0.0972405 0.10159215 -0.00019515594
-0.051587272 -0.08026983 -0.0067310827 -0.096940316 0.0010675677 -0.036133166 0.06923012 0.008940727
-0.107315935 -0.06947637 0.034088578 0.10507007 0.012359224 -0.0653107 -0.015054447 0.037107285
0.035435256 0.009545713 0.051853158 0.011586526 -8.249029e-05 -0.010973009 -0.00946096 0.00154649
-0.03341909 0.023178484 -0.017720075 0.037501916 -0.01266849 0.024686668 0.082078144 0.05461234
-0.012605666 -0.1328458 -0.0905942 -0.028292218 0.012892271 -0.0052063805 -0.10291415 -0.058318652
-0.10911838 0.032562055 -0.115070656 -0.097352564 -0.06260016 -0.09130105 -0.08794771 -0.1170555
-0.117128424 -0.0325069 -0.0022596524 -0.12103485 -0.0652658 -0.0128746005 -0.018375982 -0.054170713
00000000: f073 b0bd a7ce 1ebd be49 393c 5a28 223c
00000010: 6402 ef3c 1734 3abb 5057 5b3d f5d2 393d
00000020: 1640 f5bc eb0f 4bbb 488d 99bd 2309 7c3d
00000030: 63b6 8f3d 6c3a d23c c69d abbd afde bbbd
00000040: bb8d 8bbc a49c 363c 94e4 89bd 43fb 3bbd
00000050: 50a4 edbd e103 86bd 9fb0 51bd a6e7 dabc
00000060: 519e 97bd c5c6 0dbe be00 11bd e3bc cf3c
00000070: d4fd 863c f66e 8fbd 1395 16be 3c70 32bd
00000080: 0e36 3dbd 0dd5 323d 09eb 92bd e9e7 14bd
00000090: 3d43 66bd 9de7 793d f0ce 453d 9db2 063d
000000a0: b8ff 853c b890 76bb 1eca 00bc cb52 a53c
000000b0: 04ee 933c a66d be3d df7a 4cbc 1583 cbbb
000000c0: 03c2 15bd 9e95 9b3d 781a d23c 0b8e e8bc
000000d0: 5b2a 9ebd a588 6bbd fd01 7b3d 9e32 d13d
000000e0: 460b 063e 2255 cb3d 43ea 6f3b d686 4fbd
000000f0: 43c1 7dbd fd0c 33bd 5d80 863d 42a5 e53d
00000100: d677 ef3d 186a 123d 17e0 06bc e0f3 203d
00000110: 35c0 043d ee55 18bc ec1d 60bc e2a9 7cbc
00000120: d2db 073d 6d92 773c a907 093d 61fd 4ebd
00000130: 2a7a a6bc 6a7b 4abd 123f cf3c ec3f 0c3d
00000140: 6e4f b4bd e772 ddbd a192 e8bd 7107 6abc
00000150: 482b 78bd c8d3 88bd 33dd 47bd a559 57bd
00000160: d691 a23d 16e3 993d 071b a13d a0a6 24bc
00000170: 9dcf 843c 64a3 74bd 684b 88bd 52c3 b3bd
00000180: b8c0 583a 26a8 913d d314 9e3b adf3 7dbd
00000190: d56c 25bd e0ac 90bd 8c27 a43c d779 2b3c
000001a0: e33d 823d aedb 68bd fb46 04be 8992 cdbd
000001b0: 76d2 0b3d cb70 d43d 3397 583d d4c4 b13c
000001c0: d076 9ebc 8017 f6bc f3f2 be3c 52ff e13d
000001d0: cebf 53bb 6078 183d 74ad 9bbc 5fe7 aa3d
000001e0: 4fe7 a23d 5d93 113d b731 f53c 9084 80bc
000001f0: dc44 bdbc 99b5 5d3d 20a4 4e3d 6497 ee3d
00000200: 8cb3 173e 6fd3 5f3d 858c 09bc 02ee 983b
00000210: baa8 9f3d 5e09 8e3d 0a65 973d ad36 3b3d
00000220: 4734 443c 3005 a9bd de6e c6bd 13f8 9dbc
00000230: 4f75 a8bb a48e d5bc f03b 8bbd 548c 92bd
00000240: 3c74 13bd 1927 d33b 1650 c2bd 2bdc 62bd
00000250: 8d1d 00bc 3c37 d7ba ce0d 34bd 039a f5bd
00000260: 31a3 d7bd 815c cdbb 496b 6dbd 5676 1fbb
00000270: 4fac bcbd b6ae 69bd b275 283d 5058 423d
00000280: 7668 9f3d f644 953c 6c20 78bd fbe2 c2bd
00000290: affb cbbd 37d1 bdbd f49d 16bc f8fa 133e
000002a0: 3b70 af3c d0c6 9bbc 27ec 2cbd 2658 903d
000002b0: cb7a 833d 8f46 1a3d 49c3 393d 0e5b 39bc
000002c0: 971f e1bc cadd 483c d99b eabb 4c64 8e3d
000002d0: a6df 103e b780 953d 2ef5 acbc 2ef1 15bd
000002e0: 4865 063e 9083 0b3e 043e e83c a7fa 2fbd
000002f0: bf23 a33b 82cd c03d 8c43 4a3d 6329 423d
00000300: bf07 a2ba 9786 373d 0fc7 37bd c227 0ebe
00000310: 2d4b 16bd 0726 c73d 8c0f d03d c6a2 4cb9
00000320: 2d4d 53bd 8264 a4bd 6a90 dcbb a588 c6bd
00000330: a1ed 8b3a 5f00 14bd 85c8 8d3d 217c 123c
00000340: 75c8 dbbd a149 8ebd 77a0 0b3d fa2e d73d
00000350: 587e 4a3c 9ec1 85bd eda6 76bc cffd 173d
00000360: 8f24 113d 9f65 1c3c fa63 543d 6ad5 3d3c
00000370: a3fe acb8 23c8 33bc 2402 1bbc 98b3 ca3a
00000380: 75e2 08bd cee0 bd3c b129 91bc 9c9b 193d
00000390: 808f 4fbc b23b ca3c 9618 a83d 30b1 5f3d
000003a0: ff87 4ebc bb08 08be 7489 b9bd 15c5 e7bc
000003b0: 1b3a 533c 499a aabb a7c4 d2bd 8adf 6ebd
000003c0: 7579 dfbd ca5f 053d 2aaa ebbd c860 c7bd
000003d0: 8334 80bd 0bfc babd ee1d b4bd cbba efbd
000003e0: 07e1 efbd f525 05bd ad16 14bb 1fe1 f7bd
000003f0: 13aa 85bd fdef 52bc 3a89 96bc 1ce2 5dbd

sequential_2/conv2/Conv1D f4 [8, 1, 40, 16]
0.19545794 -0.057032745 0.020032942 -0.1244096 0.10025498 0.0015723907 0.0620799 -0.02320332
0.038974766 -0.12924966 -0.12032414 0.09591494 0.11922769 -0.007140607 0.02597712 0.034857564
0.079774976 0.037364934 0.03536902 0.049417507 0.15422662 -0.036379 -0.06020262 -0.0689311
0.03179665 0.07542043 -0.089833125 0.014883918 -0.12346276 0.017879885 0.08552526 0.047671035
0.07079328 -0.0034400425 0.0014140224 -0.050215423 -0.06668031 -0.054239467 -0.012900857 -0.019823737
-0.0539774 0.06305664 -0.06525771 -0.0034737969 -0.051682122 -0.09404132 -0.14219728 -0.052642606
0.057781227 -0.08940183 0.023404395 -0.025677623 0.054265525 -0.060993474 -0.0022089153 -0.16237026
0.012730212 -0.038225513 -0.032128762 -0.11471083 -0.03596302 -0.10006683 0.09442449 0.027013958
0.013615114 0.005647389 -0.107429154 -0.03004359 0.041009046 0.010540859 -0.041377634 0.07475916
-0.121853784 -0.06011381 0.08236302 0.053745214 -0.019608427 0.05338115 0.03802796 -0.024504418
-0.018547598 -0.037428334 0.06399358 -0.0037891644 -0.06896865 0.10163473 -0.08075341 0.02947004
0.0795168 -0.23460776 -0.016179563 -0.012007668 -0.13106576 -0.022482008 0.04995975 -0.0034406963
-0.002285548 -0.081237726 0.016537122 -0.07279981 0.10066746 0.13810158 -0.09318171 -0.1660976
-0.026810173 -0.07697744 -0.101284616 -0.012828137 -0.015862634 0.091155104 0.013489949 0.0070243003
0.07082491 0.07629233 0.046061076 -0.09388208 0.035658207 0.11443323 -0.029394014 -0.047426473
0.019314205 -0.07731368 -0.1343884 0.18857272 -0.054093324 -0.057029404 0.07606799 -0.12442349
0.094359435 0.0011329842 -0.08183265 -0.051497847 -0.11312816 0.14698969 -0.14236882 0.0014552484
-0.041577432 -0.100089535 -0.025570575 0.06286837 0.093751885 -0.16083883 0.07361486 0.023208987
-0.031376183 -0.16004 -0.0074473643 0.057494715 0.0127104465 0.10264542 -0.087056294 -0.05248229
-0.08813116 0.005695866 -0.08681287 0.13449542 0.08268584 0.032254044 -0.16238391 -0.17733371
0.016701033 -0.07715928 -0.18925855 -0.1486847 -0.02262975 0.019430725 0.008032075 0.04071814
0.10394044 -0.12676494 0.049661852 -0.106268115 -0.16647138 -0.13602857 0.040716633 0.077076234
-0.02934356 -0.010494438 -0.06623058 0.056715578 0.008840429 -0.005552012 -0.028295776 -0.004774654
-0.0022681647 -0.029808708 0.057143617 0.1059087 0.07284261 0.15357773 -0.094139814 -0.07269094
0.095808156 -0.059700165 -0.040088978 0.08260937 0.051530372 0.008528518 0.002505043 0.03765774
-0.1354762 -0.086348325 0.10854283 -0.049237527 -0.06633776 0.14212118 0.047315244 0.037040103
-0.029170012 0.08742087 0.08003198 0.060930938 -0.14091647 0.045416985 0.11730436 0.052458175
-0.012696485 -0.12072484 -0.018676842 0.08637125 -0.04145563 0.03955423 0.015838189 -0.09903539
0.08156894 0.05863148 -0.09652226 -0.03209096 -0.07083221 0.11051699 -0.046893027 -0.046988335
-0.124318235 -0.09061486 -0.0007310766 0.05915461 -0.04423452 -0.101059526 -0.027604956 -0.034805626
-0.09874634 -0.103824794 -0.14302815 0.12642694 0.09257407 0.08107489 0.1063939 0.14067498
0.092566796 -0.13098767 -0.18623213 0.0035651703 -0.15311262 0.094827965 -0.0967684 -0.047654517
00000000: 2026 483e 2b9b 69bd 201c a43c 76ca febd
00000010: 7c52 cd3d ad18 ce3a 7e47 7e3d e414 bebc
00000020: 01a4 1f3d 065a 04be 816c f6bd 0d6f c43d
00000030: a62d f43d c1fb e9bb f8cd d43c cec6 0e3d
00000040: 1061 a33d f90b 193d 1bdf 103d 036a 4a3d
00000050: 95ed 1d3e 2502 15bd 0697 76bd c02b 8dbd
00000060: 343d 023d 0776 9a3d 6efa b7bd addb 733c
00000070: 0bda fcbd d678 923c de27 af3d b442 433d
00000080: 11fc 903d 5672 61bb b856 b93a b0ae 4dbd
00000090: b08f 88bd 342a 5ebd 1e5e 53bc 6465 a2bc
000000a0: 6817 5dbd d723 813d d6a5 85bd a4a8 63bb
000000b0: a2b0 53bd bc98 c0bd 2a9c 11be c69f 57bd
000000c0: 02ac 6c3d 4f18 b7bd 93ba bf3c e159 d2bc
000000d0: 8745 5e3d 4bd4 79bd 73c3 10bb 6444 26be
000000e0: 6192 503c 5b92 1cbd 7399 03bd 83ed eabd
000000f0: f64d 13bd d7ef ccbd a161 c13d 604c dd3c
00000100: ed11 5f3c bc0d b93b d103 dcbd fa1d f6bc
00000110: 1af9 273d 91b3 2c3c 987b 29bd 551b 993d
00000120: 7a8e f9bd e639 76bd f1ad a83d f123 5c3d
00000130: daa1 a0bc 31a6 5a3d 35c3 1b3d 7dbd c8bc
00000140: 22f1 97bc 744e 19bd 110f 833d a153 78bb
00000150: 703f 8dbd df25 d03d 0b62 a5bd 276b f13c
00000160: b4d9 a23d 043d 70be 018b 84bc cfbb 44bc
00000170: 1a36 06be 302c b8bc 98a2 4c3d 4e7d 61bb
00000180: 22c9 15bb f75f a6bd dc78 873c 1118 95bd
00000190: be2a ce3d 806a 0d3e 0dd6 bebd 7d15 2abe
000001a0: 02a1 dbbc 59a6 9dbd 4f6e cfbd 1b2d 52bc
000001b0: 5bf2 81bc 87af ba3d f204 5d3c 1a2c e63b
000001c0: a70c 913d 273f 9c3d 8aaa 3c3d 3f45 c0bd
000001d0: 570e 123d f85b ea3d b7cb f0bc 4342 42bd
000001e0: d338 9e3c a256 9ebd 1d9d 09be 3519 413e
000001f0: f690 5dbd aa97 69bd 89c9 9b3d bed1 febd
00000200: 853f c13d a480 943a e097 a7bd 68ef 52bd
00000210: bdaf e7bd 7784 163e 22c9 11be 09be be3a
00000220: 194d 2abd befb ccbd 6279 d1bc 22c1 803d
00000230: fd00 c03d efb2 24be 63c3 963d c620 be3c
00000240: 5084 00bd 87e1 23be 0509 f4bb 947f 6b3d
00000250: 7a3f 503c c337 d23d 924a b2bd abf7 56bd
00000260: 1c7e b4bd 63a4 ba3b f2ca b1bd 2bb9 093e
00000270: 3257 a93d d11c 043d f847 26be f896 35be
00000280: 9bd0 883c af05 9ebd fecc 41be cd40 18be
00000290: 0762 b9bc 2f2d 9f3c f798 033c 10c8 263d
000002a0: bade d43d abce 01be 3a6a 4b3d 19a3 d9bd
000002b0: 7977 2abe 134b 0bbe 7cc6 263d 25da 9d3d
000002c0: e861 f0bc ddf0 2bbc e6a3 87bd 984e 683d
000002d0: 72d7 103c a7ed b5bb 8bcc e7bc b374 9cbb
000002e0: 7da5 14bb 6431 f4bc 6d0f 6a3d a9e6 d83d
000002f0: 822e 953d 7b43 1d3e 60cc c0bd fdde 94bd
00000300: 1137 c43d 2988 74bd 5734 24bd 1a2f a93d
00000310: 8311 533d 32bb 0b3c a62b 243b 013f 1a3d
00000320: 46ba 0abe 64d7 b0bd b44b de3d 4aad 49bd
00000330: 17dc 87bd 3788 113e a1cd 413d 5db7 173d
00000340: f3f5 eebc b709 b33d cfe7 a33d b892 793d
00000350: 684c 10be 2907 3a3d 453d f03d 62de 563d
00000360: eb04 50bc 963e f7bd 2d00 99bc 69e3 b03d
00000370: 61cd 29bd 9e03 223d 17bf 813c 11d3 cabd
00000380: 9e0d a73d 9027 703d 76ad c5bd cf71 03bd
00000390: 7a10 91bd bb56 e23d e712 40bd d776 40bd
000003a0: 8f9a febd 4994 b9bd b8a5 3fba 1b4c 723d
000003b0: 422f 35bd 4cf8 cebd ca23 e2bc 5890 0ebd
000003c0: 853b cabd 18a2 d4bd f975 12be 1076 013e
000003d0: 7997 bd3d 980a a63d 0ce5 d93d 1a0d 103e
000003e0: a993 bd3d a221 06be a3b3 3ebe a2a5 693b
000003f0: 8ec9 1cbe 2a35 c23d 832e c6bd 6231 43bd

sequential_2/output/BiasAdd/ReadVariableOp f4 [2]
-0.052167725 0.05216773
00000000: d3ad 55bd d4ad 553d

sequential_2/dense1/BiasAdd/ReadVariableOp f4 [16]
0.0568251 0.07510597 0.07069407 0.2323175 -0.016423488 0.075508244 0.06901265 -0.10343632
0.02879094 0.063928775 0.04115965 0.06367377 0.075473614 0.072804905 0.11103846 0.026821448
00000000: 70c1 683d 29d1 993d 0dc8 903d a4e4 6d3e
00000010: 8d8a 86bc 11a4 9a3d 8156 8d3d 6cd6 d3bd
00000020: fada eb3c 17ed 823d 0597 283d 6567 823d
00000030: e991 9a3d bd1a 953d 2268 e33d a7b8 db3c

sequential_2/dense1/MatMul f4 [16, 472]
0.02472325 -0.10912787 -0.1424899 0.04967057 -0.13474035 0.009455582 -0.044264592 -0.06389817
0.09038817 -0.15636568 -0.07941974 0.022326337 -0.11680377 0.032163475 0.04408201 -0.079823345
-0.048391238 -0.12872629 0.112664744 0.0771183 -0.12596293 -0.20919122 0.012058235 -0.012457613
0.021925502 0.15437798 -0.098135784 -0.03001214 0.103177756 -0.029495297 0.08088847 -0.019926567
0.10372489 -0.13270256 -0.06895835 0.020499041 0.0003604538 -0.005254446 0.07029692 0.09452162
0.028387317 -0.10547343 0.035181187 0.13598269 0.08473713 -0.045492597 0.14002614 -0.06930434
-0.092336446 -0.0091409115 0.018693138 0.067389846 -0.0641233 0.009246389 0.10098829 -0.05769483
0.10945834 -0.00045823434 -0.13781764 -0.03782534 0.06906025 -0.05694465 0.08253864 -0.11291905
-0.023919692 0.018949712 -0.03069439 -0.0053822254 -0.10291566 0.027820224 0.122766726 0.089597896
0.07288644 -0.039429005 0.094288856 0.03466218 -0.10633813 0.030845033 -0.007558088 -0.062894754
-0.022706319 0.042277195 -0.06169124 0.11926363 0.061668452 0.014029967 0.0531635 0.031495273
-0.060698584 0.09102947 0.1379546 0.12728101 -0.052389737 -0.09127706 -0.016252864 -0.071637765
0.13126414 0.13788353 0.12128118 -0.0140051 0.1765937 0.08869846 -0.046925955 0.044138446
-0.032136165 -0.08951551 -0.033304397 -0.0039907605 0.26472396 0.056582842 0.048828572 0.009754146
-0.054399546 -0.053194016 -0.092661165 -0.022611212 -0.07025876 -0.1415117 0.021590842 0.025705036
0.1342342 -0.06878583 0.09753895 0.08165285 -0.100822605 0.08036768 0.11573525 -0.12879282
-0.034926485 0.013453451 0.0032040272 -0.043316036 -0.04273941 0.122240886 -0.0012211291 0.0007035673
0.022754686 -0.1367341 -0.036989365 -0.02257803 0.04707909 -0.037750963 0.086592115 0.07956463
0.06872794 -0.01737393 0.067581445 0.06702753 -0.041816253 -0.1342144 0.018327715 0.04247156
-0.1222345 -0.15599306 0.022822624 0.015646113 -0.045245413 0.08185998 0.07819949 -0.17692299
0.08669241 -0.20089394 0.062228523 0.09147539 -0.07578421 -0.18525168 0.009383882 0.13590838
-0.10339599 -0.10858183 0.13328314 -0.05185581 -0.06415692 0.0662908 0.121330544 -0.034268368
-0.034817558 -0.0644562 -0.040843822 -0.018774386 -0.15030454 0.13537675 0.049312513 -0.048711423
0.11501852 0.028114 0.09959818 -0.081825525 -0.14547601 -0.14741282 0.107553795 -0.048214238
0.0014513186 -0.057044476 -0.064753406 -0.06213252 -0.18521112 -0.057231598 -0.0362904 -0.02650242
-0.0865917 -0.13942146 -0.09014483 -0.0034867078 0.05067743 -0.13635622 0.069315925 0.13260023
0.12019082 -0.089206375 0.07576979 -0.053866886 0.059429742 -0.09555204 -0.060251046 -0.05741706
0.096443094 -0.047816254 -0.05620655 0.016411524 -0.016642535 -0.06191296 0.068254784 0.10254468
-0.093210764 0.003703379 0.08586363 0.12636288 -0.06600075 -0.09676663 0.0055599078 -0.03947544
-0.075278506 -0.057691254 0.13401413 0.008594763 -0.056403276 -0.070301965 -0.08388889 -0.0045756698
0.07786408 -0.08001437 0.060118634 0.041729923 -0.03187937 0.047581933 0.09891932 -0.06576007
0.059316374 -0.14522275 0.01635834 -0.041990925 -0.006725529 -0.011104145 -0.09927393 0.028975064
00000000: 6a88 ca3c 6f7e dfbd dfe8 11be 5e73 4b3d
00000010: 60f9 09be 96eb 1a3c ca4e 35bd 0bdd 82bd
00000020: 6f1d b93d 531e 20be d1a6 a2bd b9e5 b63c
00000030: d136 efbd d9bd 033d 568f 343d 6c7a a3bd
00000040: e435 46bd d3d0 03be c6bc e63d 33f0 9d3d
00000050: 6dfc 00be 3936 56be e78f 453c 041b 4cbc
00000060: 1c9d b33c 4315 1e3e 6afb c8bd 05dc f5bc
00000070: dc4e d33d 1fa0 f1bc dba8 a53d 0a3d a3bc
00000080: b76d d43d 2ee3 07be 093a 8dbd 9bed a73c
00000090: 4afb bc39 7d2d acbb d5f7 8f3d 8d94 c13d
000000a0: 858c e83c 7402 d8bd 261a 103d 0c3f 0b3e
000000b0: a98a ad3d 7256 3abd 0363 0f3e 6fef 8dbd
000000c0: e41a bdbd c3c3 15bc 5a22 993c b003 8a3d
000000d0: 1453 83bd 2b7e 173c f3d2 ce3d 6a51 6cbd
000000e0: b22b e03d 2c3f f0b9 1120 0dbe beee 1abd
000000f0: 766f 8d3d cb3e 69bd 050a a93d 1a42 e7bd
00000100: 3bf3 c3bc 6d3c 9b3c cd72 fbbc 615d b0bb
00000110: 72c5 d2bd 3de7 e33c 1f6d fb3d 1a7f b73d
00000120: 7c45 953d 4f80 21bd 841a c13d eef9 0d3d
00000130: cec7 d9bd b9ae fc3c d6a9 f7bb f7ce 80bd
00000140: 9a02 babc da2a 2d3d f4af 7cbd 7d40 f43d
00000150: 0f98 7c3d f2dd 653c f8c1 593d 3001 013d
00000160: 149f 78bd a96d ba3d f843 0d3e f455 023e
00000170: 9f96 56bd 78ef babd ba24 85bc d2b6 92bd
00000180: 1b6a 063e 5731 0d3e 4462 f83d a675 65bc
00000190: fbd4 343e 8aa7 b53d 6e35 40bd 84ca 343d
000001a0: 36a1 03bd e853 b7bd 316a 08bd edc4 82bb
000001b0: e689 873e 69c3 673d 7800 483d dbcf 1f3c
000001c0: 0fd2 5ebd f8e1 59bd 23c5 bdbd 263b b9bc
000001d0: d3e3 8fbd 71e8 10be 47df b03c 5e93 d23c
000001e0: b174 093e 96df 8cbd 80c2 c73d 9c39 a73d
000001f0: 157c cebd cf97 a43d 9a06 ed3d 44e2 03be
00000200: 130f 0fbd dd6b 5c3c a8fa 513b 286c 31bd
00000210: 850f 2fbd 6e59 fa3d 4b0e a0ba 9a6f 383a
00000220: 0968 ba3c 0604 0cbe 2982 17bd 90f5 b8bc
00000230: 01d6 403d c1a0 1abd 3557 b13d c8f2 a23d
00000240: 3cc1 8c3d c653 8ebc 2468 8a3d bb45 893d
00000250: 8547 2bbd 806f 09be 0124 963c a9f6 2d3d
00000260: 1556 fabd a5bc 1fbe 83f6 ba3c 472c 803c
00000270: 4153 39bd 35a6 a73d 0e27 a03d 4d2b 35be
00000280: ca8b b13d 24b7 4dbe 56e3 7e3d 7357 bb3d
00000290: c034 9bbd 9eb2 3dbe dbbe 193c 912b 0b3e
000002a0: 47c1 d3bd 2760 debd 607b 083e c266 54bd
000002b0: b464 83bd 79c3 873d 267c f83d fd5c 0cbd
000002c0: db9c 0ebd 9d01 84bd da4b 27bd becc 99bc
000002d0: 6fe9 19be 34a0 0a3e ebfb 493d a185 47bd
000002e0: d48e eb3d 554f e63c 21fa cb3d 2494 a7bd
000002f0: aaf7 14be 63f3 16be 2a45 dc3d 4b7c 45bd
00000300: 2c3a be3a 78a7 69bd 6f9d 84bd ab7e 7ebd
00000310: fca7 3dbe ae6b 6abd 3ea5 14bd 9a1b d9bc
00000320: fd56 b1bd 80c4 0ebe da9d b8bd 4081 64bb
00000330: 2393 4f3d f7a0 0bbe 82f5 8d3d 5bc8 073e
00000340: 9b26 f63d d5b1 b6bd 312d 9b3d 86a3 5cbd
00000350: 9a6c 733d cab0 c3bd cdc9 76bd 272e 6bbd
00000360: f583 c53d fada 43bd d738 66bd 7671 863c
00000370: ed55 88bc 7298 7dbd 2ac9 8b3d f202 d23d
00000380: 49e5 bebd 64b4 723b 45d9 af3d 4565 013e
00000390: 672b 87bd 952d c6bd e32f b63b 00b1 21bd
000003a0: 9e2b 9abd aa4d 6cbd 003b 093e 0dd1 0c3c
000003b0: 1f07 67bd 7afa 8fbd f0cd abbd 80ef 95bb
000003c0: 3477 9f3d 93de a3bd f53e 763d ffec 2a3d
000003d0: f193 02bd 46e5 423d 3696 ca3d 37ad 86bd
000003e0: baf5 723d 46b5 14be ed01 863c adfe 2bbd
000003f0: d461 dcbb 29ee 35bc 2150 cbbd 1d5d ed3c

sequential_2/output/MatMul f4 [2, 16]
0.6498834 -0.024890913 -0.44333085 -0.47490576 0.48947713 -0.22590315 -0.21381871 0.4452161
0.4372763 -0.312047 0.12005774 -0.4024982 0.6961825 -0.10349235 -0.004863779 0.3368987
-0.43979466 -0.47655767 -0.36659443 0.7504676 0.5355461 0.42946118 -0.46574154 -0.0011899549
-0.2993531 -0.19414857 -0.6075454 0.6716929 0.22102879 0.05145132 0.59612054 0.04013647
00000000: c25e 263f 07e8 cbbc 43fc e2be d926 f3be
00000010: bf9c fa3e 2853 67be 4bf3 5abe 5df3 e33e
00000020: aee2 df3e a0c4 9fbe d5e0 f53d 3e14 cebe
00000030: 0439 323f ccf3 d3bd 5660 9fbb fd7d ac3e
00000040: c42c e1be 5eff f3be 44b2 bbbe a51e 403f
00000050: 8d19 093f 56e2 db3e ad75 eebe 43f8 9bba
00000060: cf44 99be e2ce 46be 1888 1bbf 11f4 2b3f
00000070: 5f55 623e 9fbe 523d 5b9b 183f 2466 243d
