models/compressed_int8/model_CNN.tflite (tflite, 22016 bytes, 4 tensors)

sequential_2/output/MatMul i1 [2, 16] scale=0.005909194 zero_point=0
000000 6e fc b5 b0 53 da dc 4b 4a cb 14 bc 76 ee ff 39
       0.6500113 -0.023636775 -0.44318953 -0.4727355 0.49046308 -0.22454937 -0.21273097 0.44318953 0.43728033 -0.31318727 0.11818387 -0.4018252 0.6972849 -0.10636549 -0.005909194 0.33682406
000010 b6 af c2 7f 5b 49 b1 00 cd df 99 72 25 09 65 07
       -0.43728033 -0.4786447 -0.36637002 0.7504676 0.53773665 0.43137115 -0.46682632 0.0 -0.3013689 -0.19500339 -0.6086469 0.6736481 0.21864016 0.053182743 0.5968286 0.041364357

sequential_2/dense1/MatMul i1 [16, 472] scale=0.0022785047 zero_point=0
000000 0b d0 c1 16 c5 04 ed e4 28 bb dd 0a cd 0e 13 dd
       0.025063552 -0.10936822 -0.14354579 0.050127104 -0.13443178 0.009114019 -0.043291587 -0.06379813 0.09114019 -0.15721682 -0.07974766 0.022785047 -0.11620374 0.031899065 0.043291587 -0.07974766
000010 eb c8 31 22 c9 a4 05 fb 0a 44 d5 f3 2d f3 24 f7
       -0.047848597 -0.12759626 0.11164673 0.077469155 -0.12531775 -0.20962243 0.011392524 -0.011392524 0.022785047 0.15493831 -0.0979757 -0.02962056 0.10253271 -0.02962056 0.08202617 -0.020506542
000020 2e c6 e2 09 00 fe 1f 29 0c d2 0f 3c 25 ec 3d e2
       0.104811214 -0.13215327 -0.06835514 0.020506542 0.0 -0.0045570093 0.07063364 0.09341869 0.027342055 -0.104811214 0.03417757 0.13671029 0.084304675 -0.045570094 0.13898878 -0.06835514
000030 d7 fc 08 1e e4 04 2c e7 30 00 c4 ef 1e e7 24 ce
       -0.09341869 -0.009114019 0.018228037 0.06835514 -0.06379813 0.009114019 0.10025421 -0.056962617 0.10936822 0.0 -0.13671029 -0.038734578 0.06835514 -0.056962617 0.08202617 -0.11392523
000040 f6 08 f3 fe d3 0c 36 27 20 ef 29 0f d1 0e fd e4
       -0.022785047 0.018228037 -0.02962056 -0.0045570093 -0.10253271 0.027342055 0.12303925 0.08886168 0.07291215 -0.038734578 0.09341869 0.03417757 -0.10708972 0.031899065 -0.0068355137 -0.06379813
000050 f6 13 e5 34 1b 06 17 0e e5 28 3d 38 e9 d8 f9 e1
       -0.022785047 0.043291587 -0.061519627 0.11848224 0.061519627 0.0136710275 0.052405607 0.031899065 -0.061519627 0.09114019 0.13898878 0.12759626 -0.052405607 -0.09114019 -0.015949532 -0.07063364
000060 3a 3d 35 fa 4e 27 eb 13 f2 d9 f1 fe 74 19 15 04
       0.13215327 0.13898878 0.12076075 -0.0136710275 0.17772336 0.08886168 -0.047848597 0.043291587 -0.031899065 -0.08886168 -0.03417757 -0.0045570093 0.26430655 0.056962617 0.047848597 0.009114019
000070 e8 e9 d7 f6 e1 c2 09 0b 3b e2 2b 24 d4 23 33 c7
       -0.05468411 -0.052405607 -0.09341869 -0.022785047 -0.07063364 -0.14126728 0.020506542 0.025063552 0.13443178 -0.06835514 0.0979757 0.08202617 -0.10025421 0.07974766 0.11620374 -0.12987477
000080 f1 06 01 ed ed 36 ff 00 0a c4 f0 f6 15 ef 26 23
       -0.03417757 0.0136710275 0.0022785047 -0.043291587 -0.043291587 0.12303925 -0.0022785047 0.0 0.022785047 -0.13671029 -0.036456075 -0.022785047 0.047848597 -0.038734578 0.086583175 0.07974766
000090 1e f8 1e 1d ee c5 08 13 ca bc 0a 07 ec 24 22 b2
       0.06835514 -0.018228037 0.06835514 0.06607664 -0.041013084 -0.13443178 0.018228037 0.043291587 -0.12303925 -0.15493831 0.022785047 0.015949532 -0.045570094 0.08202617 0.077469155 -0.17772336
0000a0 26 a8 1b 28 df af 04 3c d3 d0 3a e9 e4 1d 35 f1
       0.086583175 -0.20050842 0.061519627 0.09114019 -0.075190656 -0.18455888 0.009114019 0.13671029 -0.10253271 -0.10936822 0.13215327 -0.052405607 -0.06379813 0.06607664 0.12076075 -0.03417757
0000b0 f1 e4 ee f8 be 3b 16 eb 32 0c 2c dc c0 bf 2f eb
       -0.03417757 -0.06379813 -0.041013084 -0.018228037 -0.15038131 0.13443178 0.050127104 -0.047848597 0.11392523 0.027342055 0.10025421 -0.08202617 -0.1458243 -0.1481028 0.10708972 -0.047848597
0000c0 01 e7 e4 e5 af e7 f0 f4 da c3 d8 fe 16 c4 1e 3a
       0.0022785047 -0.056962617 -0.06379813 -0.061519627 -0.18455888 -0.056962617 -0.036456075 -0.027342055 -0.086583175 -0.13898878 -0.09114019 -0.0045570093 0.050127104 -0.13671029 0.06835514 0.13215327
0000d0 35 d9 21 e8 1a d6 e6 e7 2a eb e7 07 f9 e5 1e 2d
       0.12076075 -0.08886168 0.075190656 -0.05468411 0.05924112 -0.095697194 -0.05924112 -0.056962617 0.095697194 -0.047848597 -0.056962617 0.015949532 -0.015949532 -0.061519627 0.06835514 0.10253271
0000e0 d7 02 26 37 e3 d6 02 ef df e7 3b 04 e7 e1 db fe
       -0.09341869 0.0045570093 0.086583175 0.12531775 -0.06607664 -0.095697194 0.0045570093 -0.038734578 -0.075190656 -0.056962617 0.13443178 0.009114019 -0.056962617 -0.07063364 -0.084304675 -0.0045570093
0000f0 22 dd 1a 12 f2 15 2b e3 1a c0 07 ee fd fb d4 0d
       0.077469155 -0.07974766 0.05924112 0.041013084 -0.031899065 0.047848597 0.0979757 -0.06607664 0.05924112 -0.1458243 0.015949532 -0.041013084 -0.0068355137 -0.011392524 -0.10025421 0.02962056

sequential_2/conv2/Conv1D i1 [8, 1, 40, 16]
000000 58 e6 09 c8 2d 01 1c f6 12 c6 ca 2b 36 fd 0c 10
       88 -26 9 -56 45 1 28 -10 18 -58 -54 43 54 -3 12 16
000010 24 11 10 16 46 f0 e5 e1 0e 22 d7 07 c8 08 27 16
       36 17 16 22 70 -16 -27 -31 14 34 -41 7 -56 8 39 22
000020 20 fe 01 e9 e2 e7 fa f7 e8 1d e2 fe e9 d5 c0 e8
       32 -2 1 -23 -30 -25 -6 -9 -24 29 -30 -2 -23 -43 -64 -24
000030 1a d8 0b f4 19 e4 ff b7 06 ef f1 cc f0 d3 2b 0c
       26 -40 11 -12 25 -28 -1 -73 6 -17 -15 -52 -16 -45 43 12
000040 06 03 cf f2 13 05 ed 22 c9 e5 25 18 f7 18 11 f5
       6 3 -49 -14 19 5 -19 34 -55 -27 37 24 -9 24 17 -11
000050 f8 ef 1d fe e1 2e db 0d 24 96 f9 fb c5 f6 17 fe
       -8 -17 29 -2 -31 46 -37 13 36 -106 -7 -5 -59 -10 23 -2
000060 ff db 07 df 2e 3e d6 b5 f4 dd d2 fa f9 29 06 03
       -1 -37 7 -33 46 62 -42 -75 -12 -35 -46 -6 -7 41 6 3
000070 20 22 15 d6 10 34 f3 eb 09 dd c3 55 e8 e6 22 c8
       32 34 21 -42 16 52 -13 -21 9 -35 -61 85 -24 -26 34 -56
000080 2b 01 db e9 cd 42 c0 01 ed d3 f4 1c 2a b7 21 0a
       43 1 -37 -23 -51 66 -64 1 -19 -45 -12 28 42 -73 33 10
000090 f2 b8 fd 1a 06 2e d9 e8 d8 03 d9 3d 25 0f b7 b0
       -14 -72 -3 26 6 46 -39 -24 -40 3 -39 61 37 15 -73 -80
0000a0 08 dd aa bd f6 09 04 12 2f c7 16 d0 b5 c2 12 23
       8 -35 -86 -67 -10 9 4 18 47 -57 22 -48 -75 -62 18 35
0000b0 f3 fb e2 1a 04 fd f3 fe ff f3 1a 30 21 45 d5 df
       -13 -5 -30 26 4 -3 -13 -2 -1 -13 26 48 33 69 -43 -33
0000c0 2b e5 ee 25 17 04 01 11 c3 d9 31 ea e2 40 15 11
       43 -27 -18 37 23 4 1 17 -61 -39 49 -22 -30 64 21 17
0000d0 f3 28 24 1c c0 15 35 18 fa c9 f8 27 ed 12 07 d3
       -13 40 36 28 -64 21 53 24 -6 -55 -8 39 -19 18 7 -45
0000e0 25 1b d4 f1 e0 32 eb eb c8 d7 00 1b ec d2 f4 f0
       37 27 -44 -15 -32 50 -21 -21 -56 -41 0 27 -20 -46 -12 -16
0000f0 d3 d1 bf 39 2a 25 30 40 2a c5 ac 02 bb 2b d4 ea
       -45 -47 -65 57 42 37 48 64 42 -59 -84 2 -69 43 -44 -22

sequential_2/conv1/Conv1D i1 [16, 1, 80, 1]
000000 b6 df 0a 09 19 fe 2e 27 e6 fd bf 35 3d 16 b8 b1
       -74 -33 10 9 25 -2 46 39 -26 -3 -65 53 61 22 -72 -79
000010 f1 0a c6 d8 9c c7 d4 e9 c0 88 e1 16 0e c4 81 da
       -15 10 -58 -40 -100 -57 -44 -23 -64 -120 -31 22 14 -60 -127 -38
000020 d8 26 c2 e1 cf 35 2a 1c 0e fd f9 11 10 50 f5 fb
       -40 38 -62 -31 -49 53 42 28 14 -3 -7 17 16 80 -11 -5
000030 e0 42 16 e7 bd ce 35 58 71 56 03 d4 ca da 39 61
       -32 66 22 -25 -67 -50 53 88 113 86 3 -44 -54 -38 57 97
000040 65 1f f9 22 1c f8 f4 f3 1d 0d 1d d4 ee d5 16 1e
       101 31 -7 34 28 -8 -12 -13 29 13 29 -44 -18 -43 22 30
000050 b5 a3 9f f4 cc c7 d6 d3 44 40 43 f7 0e cd c7 b5
       -75 -93 -97 -12 -52 -57 -42 -45 68 64 67 -9 14 -51 -57 -75
000060 01 3d 04 cb dd c3 11 09 37 cf 91 aa 1d 59 2d 13
       1 61 4 -53 -35 -61 17 9 55 -49 -111 -86 29 89 45 19
000070 ef e6 14 5f fd 20 f0 48 44 1e 1a f3 ec 2e 2b 64
       -17 -26 20 95 -3 32 -16 72 68 30 26 -13 -20 46 43 100
000080 7f 2f f9 04 43 3b 3f 27 0a b9 ad ef fc ea c6 c3
       127 47 -7 4 67 59 63 39 10 -71 -83 -17 -4 -22 -58 -61
000090 e1 06 af d1 f9 ff da 99 a6 fb ce fe b1 cf 23 29
       -31 6 -81 -47 -7 -1 -38 -103 -90 -5 -50 -2 -79 -49 35 41
0000a0 44 10 cb ac a8 af f8 7f 13 ef db 3e 38 21 28 f6
       68 16 -53 -84 -88 -81 -8 127 19 -17 -37 62 56 33 40 -10
0000b0 e8 0b fa 3d 7c 40 ed e0 73 78 19 da 04 53 2b 2a
       -24 11 -6 61 124 64 -19 -32 115 120 25 -38 4 83 43 42
0000c0 ff 27 d9 86 e0 55 59 00 d3 b9 fa ab 01 e0 3d 08
       -1 39 -39 -122 -32 85 89 0 -45 -71 -6 -85 1 -32 61 8
0000d0 a2 c3 1e 5c 0b c7 f3 21 1f 08 2e 0a 00 f6 f8 01
       -94 -61 30 92 11 -57 -13 33 31 8 46 10 0 -10 -8 1
0000e0 e3 14 f0 21 f5 16 48 30 f5 8b b0 e7 0b fb a6 cd
       -29 20 -16 33 -11 22 72 48 -11 -117 -80 -25 11 -5 -90 -51
0000f0 a5 1b a0 ae cc b4 b6 9e 9e e5 fe 9b c9 f5 f1 d3
       -91 27 -96 -82 -52 -76 -74 -98 -98 -27 -2 -101 -55 -11 -15 -45
