models/compressed_int8/model_CNNA.tflite (tflite, 292432 bytes, 5 tensors)

sequential_3/output/MatMul i1 [2, 64] scale=0.0028393983 zero_point=0
000000 eb 99 f5 e6 d0 67 88 d7 f5 93 42 78 b5 b1 38 f5
       -0.059627365 -0.29245803 -0.031233381 -0.07382435 -0.13629112 0.29245803 -0.3407278 -0.11641533 -0.031233381 -0.3094944 0.1874003 0.3407278 -0.21295488 -0.22431247 0.15900631 -0.031233381
000010 a0 02 f4 1d 5b e0 0e d1 66 a4 ee fd 3a 04 d9 58
       -0.27258223 0.0056787967 -0.03407278 0.08234255 0.25838524 -0.09086075 0.039751578 -0.13345172 0.28961864 -0.26122466 -0.05110917 -0.008518195 0.1646851 0.011357593 -0.110736534 0.24986705
000020 fd 3a 0e 18 36 38 12 26 a6 3b 5b 9e d8 55 0b c3
       -0.008518195 0.1646851 0.039751578 0.06814556 0.15332751 0.15900631 0.05110917 0.10789714 -0.25554585 0.1675245 0.25838524 -0.27826104 -0.113575935 0.24134886 0.031233381 -0.1732033
000030 8b b6 23 1b 9f d1 6c 53 cb c8 d1 49 93 d9 b0 7d
       -0.33220962 -0.21011548 0.09937894 0.076663755 -0.27542165 -0.13345172 0.30665502 0.23567006 -0.15048811 -0.15900631 -0.13345172 0.20727608 -0.3094944 -0.110736534 -0.22715187 0.3549248
000040 fb 15 db 4c 15 0f 50 4d 69 c5 cf fe 11 00 d9 be
       -0.014196992 0.059627365 -0.10505774 0.21579428 0.059627365 0.042590976 0.22715187 0.21863367 0.29813683 -0.1675245 -0.13913052 -0.0056787967 0.04826977 0.0 -0.110736534 -0.1874003
000050 d9 c6 47 a1 fd 65 a4 1c 2e 7e e6 e8 5e cb 3c 84
       -0.110736534 -0.1646851 0.20159729 -0.26974285 -0.008518195 0.28677922 -0.26122466 0.079503156 0.13061233 0.35776418 -0.07382435 -0.06814556 0.26690343 -0.15048811 0.1703639 -0.35208538
000060 98 fb fb 7b 85 a7 0f bf 7b 38 f1 27 f3 e1 65 e0
       -0.2952974 -0.014196992 -0.014196992 0.349246 -0.349246 -0.25270644 0.042590976 -0.1845609 0.349246 0.15900631 -0.042590976 0.110736534 -0.036912177 -0.088021345 0.28677922 -0.09086075
000070 c4 59 b3 57 4a 1d d7 13 81 cf 05 ef 50 a2 3b cb
       -0.1703639 0.25270644 -0.21863367 0.24702765 0.21011548 0.08234255 -0.11641533 0.05394857 -0.3606036 -0.13913052 0.014196992 -0.04826977 0.22715187 -0.26690343 0.1675245 -0.15048811

sequential_3/dense1/MatMul i1 [64, 4000] scale=0.001337352 zero_point=0
000000 29 e4 fb 1a 05 20 f2 0b fd 19 f8 0e 0c 17 e4 01
       0.05483143 -0.037445854 -0.00668676 0.03477115 0.00668676 0.042795263 -0.018722927 0.0147108715 -0.0040120557 0.0334338 -0.010698816 0.018722927 0.016048223 0.030759096 -0.037445854 0.001337352
000010 1f 13 f5 e6 fc fb d3 ee fc f5 2d f7 05 36 e0 0d
       0.04145791 0.025409687 -0.0147108715 -0.03477115 -0.005349408 -0.00668676 -0.06018084 -0.024072336 -0.005349408 -0.0147108715 0.06018084 -0.012036168 0.00668676 0.07221701 -0.042795263 0.017385576
000020 1f e7 26 fe f6 f2 05 24 b8 12 e9 19 12 1f fc 0d
       0.04145791 -0.0334338 0.050819375 -0.002674704 -0.01337352 -0.018722927 0.00668676 0.048144672 -0.096289344 0.024072336 -0.030759096 0.0334338 0.024072336 0.04145791 -0.005349408 0.017385576
000030 23 1d 22 13 cd 2e 37 0c d8 fb fe 0b 07 fe e7 0c
       0.04680732 0.038783208 0.045469966 0.025409687 -0.068204954 0.061518192 0.07355436 0.016048223 -0.05349408 -0.00668676 -0.002674704 0.0147108715 0.009361464 -0.002674704 -0.0334338 0.016048223
000040 16 20 f6 11 f1 2d ef 0e 11 29 db 26 ff d6 0b 00
       0.029421743 0.042795263 -0.01337352 0.022734983 -0.02006028 0.06018084 -0.022734983 0.018722927 0.022734983 0.05483143 -0.04948202 0.050819375 -0.001337352 -0.056168783 0.0147108715 0.0
000050 1f fd 0a 08 fb ec ea f2 d5 fe f1 f0 f1 0a 12 18
       0.04145791 -0.0040120557 0.01337352 0.010698816 -0.00668676 -0.02674704 -0.029421743 -0.018722927 -0.057506137 -0.002674704 -0.02006028 -0.021397632 -0.02006028 0.01337352 0.024072336 0.032096446
000060 35 04 27 fa fe f5 27 1b f9 1c 2e 0f 1e 12 da 1d
       0.07087965 0.005349408 0.052156728 -0.008024111 -0.002674704 -0.0147108715 0.052156728 0.036108505 -0.009361464 0.037445854 0.061518192 0.02006028 0.04012056 0.024072336 -0.050819375 0.038783208
000070 20 20 2f 0a de 19 fa fe b4 0b f0 12 e4 06 11 1a
       0.042795263 0.042795263 0.06285554 0.01337352 -0.045469966 0.0334338 -0.008024111 -0.002674704 -0.10163875 0.0147108715 -0.021397632 0.024072336 -0.037445854 0.008024111 0.022734983 0.03477115
000080 10 2d 00 26 f0 0f e1 ed 1e f4 2c 08 18 f4 0c 20
       0.021397632 0.06018084 0.0 0.050819375 -0.021397632 0.02006028 -0.04145791 -0.025409687 0.04012056 -0.016048223 0.058843486 0.010698816 0.032096446 -0.016048223 0.016048223 0.042795263
000090 0f e5 f6 fe 0a 09 ff ea f9 f5 f2 11 0f f2 eb fb
       0.02006028 -0.036108505 -0.01337352 -0.002674704 0.01337352 0.012036168 -0.001337352 -0.029421743 -0.009361464 -0.0147108715 -0.018722927 0.022734983 0.02006028 -0.018722927 -0.028084392 -0.00668676
0000a0 11 eb 03 f5 1a 0d f9 0a 0a 04 0b f8 e4 0a ec 02
       0.022734983 -0.028084392 0.0040120557 -0.0147108715 0.03477115 0.017385576 -0.009361464 0.01337352 0.01337352 0.005349408 0.0147108715 -0.010698816 -0.037445854 0.01337352 -0.02674704 0.002674704
0000b0 0a e2 03 02 de fc e3 15 e7 18 e4 07 e7 d0 ea 16
       0.01337352 -0.04012056 0.0040120557 0.002674704 -0.045469966 -0.005349408 -0.038783208 0.028084392 -0.0334338 0.032096446 -0.037445854 0.009361464 -0.0334338 -0.06419289 -0.029421743 0.029421743
0000c0 21 fa 1a 0b ea 07 fe 21 08 0d 0b f7 f0 0d e9 0d
       0.044132616 -0.008024111 0.03477115 0.0147108715 -0.029421743 0.009361464 -0.002674704 0.044132616 0.010698816 0.017385576 0.0147108715 -0.012036168 -0.021397632 0.017385576 -0.030759096 0.017385576
0000d0 01 e6 f9 00 ee 07 00 05 d0 23 ea 12 ef e1 0f f4
       0.001337352 -0.03477115 -0.009361464 0.0 -0.024072336 0.009361464 0.0 0.00668676 -0.06419289 0.04680732 -0.029421743 0.024072336 -0.022734983 -0.04145791 0.02006028 -0.016048223
0000e0 f5 e3 07 fb 09 45 05 f3 fb f9 ea ea e7 08 04 ec
       -0.0147108715 -0.038783208 0.009361464 -0.00668676 0.012036168 0.09227729 0.00668676 -0.017385576 -0.00668676 -0.009361464 -0.029421743 -0.029421743 -0.0334338 0.010698816 0.005349408 -0.02674704
0000f0 f4 ec 06 ff 0d 1c ee f4 11 26 f5 e6 f8 d9 02 fc
       -0.016048223 -0.02674704 0.008024111 -0.001337352 0.017385576 0.037445854 -0.024072336 -0.016048223 0.022734983 0.050819375 -0.0147108715 -0.03477115 -0.010698816 -0.052156728 0.002674704 -0.005349408

sequential_3/conv1d_2/Conv1D i1 [16, 1, 9, 32]
000000 53 bd ac 5f 50 f3 5d 71 dd 25 03 20 94 ee da bf
       83 -67 -84 95 80 -13 93 113 -35 37 3 32 -108 -18 -38 -65
000010 04 cc ce 0b b2 02 f9 67 df d8 35 3e 2e d2 57 a8
       4 -52 -50 11 -78 2 -7 103 -33 -40 53 62 46 -46 87 -88
000020 70 11 e3 b0 fa c6 e5 17 18 3c a2 1c 9c 0e b1 a5
       112 17 -29 -80 -6 -58 -27 23 24 60 -94 28 -100 14 -79 -91
000030 a8 c3 01 1b 6c 6c 0a a4 7f 24 f2 40 a7 ab b0 f3
       -88 -61 1 27 108 108 10 -92 127 36 -14 64 -89 -85 -80 -13
000040 0f 18 b9 ed 4b 1f a8 d1 40 00 d5 5b f3 65 a6 84
       15 24 -71 -19 75 31 -88 -47 64 0 -43 91 -13 101 -90 -124
000050 3d 04 57 5d f7 58 25 2d 32 bf d0 d7 f0 d3 17 59
       61 4 87 93 -9 88 37 45 50 -65 -48 -41 -16 -45 23 89
000060 4a 01 d3 92 42 2b c3 f2 45 f2 37 1a ad 46 c1 94
       74 1 -45 -110 66 43 -61 -14 69 -14 55 26 -83 70 -63 -108
000070 b6 6c 6b fc a7 9e 42 a5 76 ee 9c f1 d3 21 37 cb
       -74 108 107 -4 -89 -98 66 -91 118 -18 -100 -15 -45 33 55 -53
000080 ad 5a b3 e9 dc 1d fa 2a 65 35 2d 96 c2 9a 8d 1c
       -83 90 -77 -23 -36 29 -6 42 101 53 45 -106 -62 -102 -115 28
000090 a1 59 d6 ae 9f d4 ed 04 a7 40 20 3a 01 a9 dd 33
       -95 89 -42 -82 -97 -44 -19 4 -89 64 32 58 1 -87 -35 51
0000a0 d2 74 f2 d5 13 4f fb b4 b2 d2 4d 0a 14 59 d0 9d
       -46 116 -14 -43 19 79 -5 -76 -78 -46 77 10 20 89 -48 -99
0000b0 b5 f6 27 f9 ac 53 60 3a d9 bb 92 be f6 d2 56 fd
       -75 -10 39 -7 -84 83 96 58 -39 -69 -110 -66 -10 -46 86 -3
0000c0 68 f5 44 a2 1f ab 1a 6a a6 b2 30 a0 fd ab e2 5a
       104 -11 68 -94 31 -85 26 106 -90 -78 48 -96 -3 -85 -30 90
0000d0 15 ed 06 01 13 f1 ba ec 23 24 ac 0f b5 e0 b4 ea
       21 -19 6 1 19 -15 -70 -20 35 36 -84 15 -75 -32 -76 -22
0000e0 f4 38 dd ee ec e3 5f 00 2a c9 42 d9 46 27 9f da
       -12 56 -35 -18 -20 -29 95 0 42 -55 66 -39 70 39 -97 -38
0000f0 52 03 58 cb 12 af 37 f8 a3 30 b0 cc 58 fd cb 14
       82 3 88 -53 18 -81 55 -8 -93 48 -80 -52 88 -3 -53 20

sequential_3/conv1d_1/Conv1D i1 [32, 1, 9, 64]
000000 c2 cf 99 40 bf b9 36 f4 ae f1 2c 06 12 30 c8 88
       -62 -49 -103 64 -65 -71 54 -12 -82 -15 44 6 18 48 -56 -120
000010 08 e5 ef 39 d3 ca 4b 2b 41 03 fc f9 94 d6 c6 1c
       8 -27 -17 57 -45 -54 75 43 65 3 -4 -7 -108 -42 -58 28
000020 91 c0 02 c8 9f 91 91 41 0e d9 30 f3 b8 36 f7 a2
       -111 -64 2 -56 -97 -111 -111 65 14 -39 48 -13 -72 54 -9 -94
000030 1f e6 ee 11 1d 33 9a 93 d0 2a ff 49 dc c0 e1 85
       31 -26 -18 17 29 51 -102 -109 -48 42 -1 73 -36 -64 -31 -123
000040 b3 f5 2d 0e f5 d6 b8 0c bd b1 d2 c5 fa cc 06 eb
       -77 -11 45 14 -11 -42 -72 12 -67 -79 -46 -59 -6 -52 6 -21
000050 d3 08 cd 22 08 35 df 3f 16 d0 d1 eb bc 36 f5 db
       -45 8 -51 34 8 53 -33 63 22 -48 -47 -21 -68 54 -11 -37
000060 f0 17 01 d5 dc d4 98 41 3f 56 29 c0 f8 eb b3 f3
       -16 23 1 -43 -36 -44 -104 65 63 86 41 -64 -8 -21 -77 -13
000070 23 e6 d1 25 c8 d3 a9 19 de b0 a2 16 1b b8 14 0b
       35 -26 -47 37 -56 -45 -87 25 -34 -80 -94 22 27 -72 20 11
000080 cb 0b d7 c2 d3 19 f8 24 b5 c3 cc f1 c5 3a 9a bd
       -53 11 -41 -62 -45 25 -8 36 -75 -61 -52 -15 -59 58 -102 -67
000090 9e 30 f0 f5 e7 43 a3 e9 14 b6 41 b9 d3 f2 1b 1c
       -98 48 -16 -11 -25 67 -93 -23 20 -74 65 -71 -45 -14 27 28
0000a0 a8 dd df 2a 96 18 16 d5 bd d5 30 4d d6 8f b5 0d
       -88 -35 -33 42 -106 24 22 -43 -67 -43 48 77 -42 -113 -75 13
0000b0 ac b3 11 e3 f3 44 0d 0b 2c 12 14 28 15 44 49 88
       -84 -77 17 -29 -13 68 13 11 44 18 20 40 21 68 73 -120
0000c0 bd de dc 01 e5 bb 46 49 29 13 4b c1 d5 c4 a4 35
       -67 -34 -36 1 -27 -69 70 73 41 19 75 -63 -43 -60 -92 53
0000d0 0f bc 27 3c cb 20 c9 29 4f a2 fe 21 d8 97 0a fd
       15 -68 39 60 -53 32 -55 41 79 -94 -2 33 -40 -105 10 -3
0000e0 2d 08 43 f6 1b b6 c5 ff 4c fa cd f2 28 18 f9 d0
       45 8 67 -10 27 -74 -59 -1 76 -6 -51 -14 40 24 -7 -48
0000f0 19 0a ae 01 ad 04 3f b8 f3 d1 ef 26 2d 00 d4 fd
       25 10 -82 1 -83 4 63 -72 -13 -47 -17 38 45 0 -44 -3

sequential_3/conv1d/Conv1D i1 [64, 1, 9, 1]
000000 7f 4a 72 a1 ae 9c c0 e7 e5 47 2d 72 46 f7 4b 1a
       127 74 114 -95 -82 -100 -64 -25 -27 71 45 114 70 -9 75 26
000010 7f da d3 3b 7d 5e ca 67 5d f0 81 66 69 fd 2b 49
       127 -38 -45 59 125 94 -54 103 93 -16 -127 102 105 -3 43 73
000020 e7 7f df 58 e0 4e 26 57 22 1d 3f 79 7f 2d 27 73
       -25 127 -33 88 -32 78 38 87 34 29 63 121 127 45 39 115
000030 c1 54 5e bd 69 7f 95 50 2e ef c0 81 cf 36 51 fa
       -63 84 94 -67 105 127 -107 80 46 -17 -64 -127 -49 54 81 -6
000040 8d b6 49 6d ff 11 0b 7f 2a a9 f2 63 a5 10 4a 56
       -115 -74 73 109 -1 17 11 127 42 -87 -14 99 -91 16 74 86
000050 81 a9 a8 0a dd a8 96 de 81 1f ff 7f 77 0a ac de
       -127 -87 -88 10 -35 -88 -106 -34 -127 31 -1 127 119 10 -84 -34
000060 74 3a 35 14 95 f5 cc 25 bc f7 7f 54 4c 7f e0 b2
       116 58 53 20 -107 -11 -52 37 -68 -9 127 84 76 127 -32 -78
000070 64 f0 2f e8 34 81 1a 96 9b 97 17 74 01 cd 0e 0a
       100 -16 47 -24 52 -127 26 -106 -101 -105 23 116 1 -51 14 10
000080 7f d4 c7 86 56 c7 c2 c5 73 bc c1 7f e0 a0 7c cb
       127 -44 -57 -122 86 -57 -62 -59 115 -68 -63 127 -32 -96 124 -53
000090 4a 38 fa a6 e0 c8 14 81 81 0d 5b 34 81 d0 0f 6e
       74 56 -6 -90 -32 -56 20 -127 -127 13 91 52 -127 -48 15 110
0000a0 43 95 13 e9 35 81 ef b6 e3 ed bd 24 cb 87 81 91
       67 -107 19 -23 53 -127 -17 -74 -29 -19 -67 36 -53 -121 -127 -111
0000b0 e3 63 10 21 bf 27 69 bd 81 06 25 44 3c de 1b 8c
       -29 99 16 33 -65 39 105 -67 -127 6 37 68 60 -34 27 -116
0000c0 81 87 c8 1d 61 00 bf 69 46 f8 c4 96 7f 65 d9 92
       -127 -121 -56 29 97 0 -65 105 70 -8 -60 -106 127 101 -39 -110
0000d0 36 a5 1a 31 9c 6a 81 bc 87 3a 63 6b e8 ae d5 3c
       54 -91 26 49 -100 106 -127 -68 -121 58 99 107 -24 -82 -43 60
0000e0 7f d0 b4 da 01 69 f1 0f de 81 5b db 26 b8 8a eb
       127 -48 -76 -38 1 105 -15 15 -34 -127 91 -37 38 -72 -118 -21
0000f0 d8 7f 0d 81 d0 b8 79 ef a2 27 b0 fb a3 d7 5c e9
       -40 127 13 -127 -48 -72 121 -17 -94 39 -80 -5 -93 -41 92 -23
