models/compressed_int8/model_NN.tflite (tflite, 515232 bytes, 3 tensors)

sequential/dense_2/MatMul i1 [2, 16] scale=0.005049409 zero_point=0
0	0x2a	0.21207517
1	0x29	0.20702577
2	0x6e	0.555435
3	0xf8	-0.04039527
4	0x08	0.04039527
5	0x63	0.4998915
6	0x22	0.1716799
7	0x88	-0.6059291
8	0xd5	-0.21712458
9	0x81	-0.6412749
10	0xc2	-0.31306335
11	0x4e	0.3938539
12	0x56	0.43424916
13	0xcf	-0.24742104
14	0x35	0.26761866
15	0x83	-0.6311761
16	0xe6	-0.13128462
17	0xb0	-0.40395272
18	0x0b	0.055543497
19	0x91	-0.5604844
20	0x39	0.28781632
21	0x1c	0.14138345
22	0x1d	0.14643286
23	0x1c	0.14138345
24	0x70	0.5655338
25	0xed	-0.09593877
26	0x98	-0.5251385
27	0x06	0.030296452
28	0xd3	-0.2272234
29	0xf3	-0.06564231
30	0xda	-0.19187754
31	0xe0	-0.16158108

sequential/dense_1/MatMul i1 [16, 32] scale=0.0032822953 zero_point=0
0	0xd6	-0.13785641
1	0x3f	0.2067846
2	0xb7	-0.23960756
3	0xec	-0.0656459
4	0x56	0.2822774
5	0xf4	-0.039387543
6	0x25	0.121444926
7	0x2d	0.14770329
8	0x28	0.1312918
9	0xd1	-0.15426788
10	0xcc	-0.17067936
11	0xb3	-0.25273675
12	0xf9	-0.022976067
13	0x9a	-0.33479413
14	0x6e	0.36105248
15	0x78	0.39387545
16	0xe4	-0.09190427
17	0x0c	0.039387543
18	0x7f	0.4168515
19	0x27	0.12800951
20	0x4b	0.24617215
21	0xfe	-0.0065645906
22	0xa0	-0.31510034
23	0x5d	0.30525348
24	0x0a	0.03282295
25	0x17	0.07549279
26	0x47	0.23304297
27	0x1c	0.09190427
28	0xff	-0.0032822953
29	0x3b	0.19365542
30	0x32	0.16411476
31	0xbc	-0.22319607
32	0x1d	0.09518656
33	0x27	0.12800951
34	0xde	-0.11159804
35	0x23	0.11488034
36	0x1a	0.08533968
37	0x1c	0.09190427
38	0x77	0.39059314
39	0x12	0.059081316
40	0x34	0.17067936
41	0x0d	0.04266984
42	0xde	-0.11159804
43	0xd3	-0.14770329
44	0xfe	-0.0065645906
45	0x39	0.18709083
46	0x1d	0.09518656
47	0x2e	0.15098558
48	0xc7	-0.18709083
49	0x31	0.16083246
50	0xa6	-0.29540658
51	0xa2	-0.30853575
52	0x1c	0.09190427
53	0xdf	-0.10831574
54	0xda	-0.12472722
55	0x60	0.31510034
56	0xc8	-0.18380854
57	0x43	0.21991378
58	0x3b	0.19365542
59	0xa6	-0.29540658
60	0xc3	-0.20022002
61	0x08	0.026258362
62	0xfb	-0.016411476
63	0xed	-0.06236361
64	0x9f	-0.31838265
65	0x65	0.33151183
66	0x4a	0.24288985
67	0xe0	-0.10503345
68	0xe2	-0.09846886
69	0x07	0.022976067
70	0xec	-0.0656459
71	0x53	0.2724305
72	0x3e	0.20350231
73	0x1f	0.101751156
74	0xf5	-0.03610525
75	0x91	-0.3643348
76	0xe7	-0.08205738
77	0xe0	-0.10503345
78	0xe4	-0.09190427
79	0x65	0.33151183
80	0xea	-0.0722105
81	0x51	0.26586592
82	0x2e	0.15098558
83	0x64	0.32822952
84	0x45	0.22647838
85	0x08	0.026258362
86	0xfb	-0.016411476
87	0xe2	-0.09846886
88	0xd8	-0.1312918
89	0xa4	-0.30197117
90	0x38	0.18380854
91	0x04	0.013129181
92	0x41	0.2133492
93	0xfa	-0.019693771
94	0x04	0.013129181
95	0x03	0.009846886
96	0x06	0.019693771
97	0xd1	-0.15426788
98	0x64	0.32822952
99	0xdf	-0.10831574
100	0x9d	-0.32494724
101	0xcd	-0.16739707
102	0xcf	-0.16083246
103	0x1a	0.08533968
104	0x4d	0.25273675
105	0x37	0.18052624
106	0x27	0.12800951
107	0xa3	-0.30525348
108	0xd7	-0.1345741
109	0x38	0.18380854
110	0xeb	-0.068928204
111	0x02	0.0065645906
112	0x16	0.0722105
113	0xe0	-0.10503345
114	0x36	0.17724395
115	0x36	0.17724395
116	0x4f	0.25930133
117	0x14	0.0656459
118	0xae	-0.2691482
119	0x65	0.33151183
120	0xc2	-0.20350231
121	0x32	0.16411476
122	0x28	0.1312918
123	0x25	0.121444926
124	0xde	-0.11159804
125	0x71	0.37089938
126	0x60	0.31510034
127	0xbe	-0.21663149
128	0x51	0.26586592
129	0x37	0.18052624
130	0xcd	-0.16739707
131	0xe8	-0.078775086
132	0xe7	-0.08205738
133	0xe7	-0.08205738
134	0x14	0.0656459
135	0x12	0.059081316
136	0x99	-0.3380764
137	0xaf	-0.26586592
138	0x51	0.26586592
139	0xee	-0.059081316
140	0x62	0.32166493
141	0xe1	-0.101751156
142	0xfe	-0.0065645906
143	0xd2	-0.15098558
144	0xf9	-0.022976067
145	0xd7	-0.1345741
146	0x12	0.059081316
147	0xaa	-0.2822774
148	0xba	-0.22976068
149	0xe4	-0.09190427
150	0x4b	0.24617215
151	0x30	0.15755017
152	0x54	0.27571282
153	0x32	0.16411476
154	0xe6	-0.08533968
155	0x03	0.009846886
156	0xfc	-0.013129181
157	0x2a	0.13785641
158	0x15	0.068928204
159	0xcb	-0.17396165
160	0xda	-0.12472722
161	0x9e	-0.32166493
162	0x03	0.009846886
163	0x5e	0.30853575
164	0x0e	0.045952134
165	0x02	0.0065645906
166	0x04	0.013129181
167	0x61	0.31838265
168	0xeb	-0.068928204
169	0xdc	-0.11816263
170	0x9f	-0.31838265
171	0x12	0.059081316
172	0x9c	-0.32822952
173	0xd9	-0.12800951
174	0x17	0.07549279
175	0xc1	-0.2067846
176	0x4d	0.25273675
177	0x5b	0.29868886
178	0xe5	-0.088621974
179	0x01	0.0032822953
180	0xbc	-0.22319607
181	0xa8	-0.288842
182	0x95	-0.3512056
183	0x1e	0.09846886
184	0x2f	0.15426788
185	0x6b	0.3512056
186	0xb2	-0.25601903
187	0xe7	-0.08205738
188	0xaa	-0.2822774
189	0xb3	-0.25273675
190	0xef	-0.05579902
191	0x36	0.17724395
192	0x09	0.029540658
193	0xde	-0.11159804
194	0x5c	0.30197117
195	0xc6	-0.19037312
196	0xf1	-0.04923443
197	0x97	-0.344641
198	0xc6	-0.19037312
199	0x37	0.18052624
200	0xbf	-0.2133492
201	0x58	0.288842
202	0xc4	-0.19693772
203	0xc8	-0.18380854
204	0x60	0.31510034
205	0xa3	-0.30525348
206	0x9f	-0.31838265
207	0x10	0.052516725
208	0x48	0.23632526
209	0x1d	0.09518656
210	0xc9	-0.18052624
211	0x3e	0.20350231
212	0x68	0.34135872
213	0x09	0.029540658
214	0x90	-0.36761707
215	0xd8	-0.1312918
216	0xbc	-0.22319607
217	0xa1	-0.31181806
218	0x2c	0.144421
219	0xd3	-0.14770329
220	0x49	0.23960756
221	0xcf	-0.16083246
222	0x1c	0.09190427
223	0xb1	-0.25930133
224	0x65	0.33151183
225	0x3d	0.20022002
226	0x40	0.2100669
227	0x22	0.11159804
228	0xfd	-0.009846886
229	0x4b	0.24617215
230	0xa6	-0.29540658
231	0x62	0.32166493
232	0xd9	-0.12800951
233	0xed	-0.06236361
234	0x04	0.013129181
235	0xb4	-0.24945444
236	0x6e	0.36105248
237	0xa9	-0.28555968
238	0xae	-0.2691482
239	0xd3	-0.14770329
240	0x74	0.38074625
241	0x2e	0.15098558
242	0x97	-0.344641
243	0x26	0.12472722
244	0xc5	-0.19365542
245	0x0d	0.04266984
246	0x54	0.27571282
247	0xb3	-0.25273675
248	0x58	0.288842
249	0xb7	-0.23960756
250	0x10	0.052516725
251	0x07	0.022976067
252	0xd0	-0.15755017
253	0x15	0.068928204
254	0xc3	-0.20022002
255	0xad	-0.2724305

sequential/dense/MatMul i1 [32, 16000] scale=0.0005118584 zero_point=0
0	0x20	0.016379468
1	0x1b	0.013820176
2	0xff	-0.0005118584
3	0xff	-0.0005118584
4	0xca	-0.027640352
5	0x08	0.004094867
6	0xf1	-0.0076778755
7	0x04	0.0020474335
8	0x0c	0.0061423006
9	0xf4	-0.0061423006
10	0x2a	0.021498052
11	0xf3	-0.006654159
12	0xd3	-0.023033626
13	0xfd	-0.0015355751
14	0xdb	-0.01893876
15	0xe1	-0.01586761
16	0xe8	-0.012284601
17	0xf1	-0.0076778755
18	0x31	0.02508106
19	0x0f	0.0076778755
20	0x5e	0.048114687
21	0x01	0.0005118584
22	0xe2	-0.015355751
23	0xda	-0.019450618
24	0xd9	-0.019962477
25	0xf6	-0.005118584
26	0x1b	0.013820176
27	0x06	0.0030711503
28	0x49	0.03736566
29	0x1d	0.014843893
30	0x34	0.026616637
31	0xf5	-0.005630442
32	0x1e	0.015355751
33	0x37	0.02815221
34	0x03	0.0015355751
35	0xe8	-0.012284601
36	0xf9	-0.0035830087
37	0xf1	-0.0076778755
38	0xf4	-0.0061423006
39	0x1e	0.015355751
40	0x42	0.033782654
41	0x09	0.0046067256
42	0x20	0.016379468
43	0xdf	-0.016891327
44	0x0d	0.006654159
45	0xf9	-0.0035830087
46	0x00	0.0
47	0x14	0.010237168
48	0x20	0.016379468
49	0xf9	-0.0035830087
50	0x09	0.0046067256
51	0x02	0.0010237168
52	0x3d	0.03122336
53	0x1a	0.013308318
54	0x1e	0.015355751
55	0x20	0.016379468
56	0x32	0.02559292
57	0x1f	0.01586761
58	0x20	0.016379468
59	0x23	0.017915044
60	0x2d	0.023033626
61	0x0e	0.0071660173
62	0x16	0.011260884
63	0x25	0.01893876
64	0x3f	0.032247078
65	0x43	0.034294512
66	0x22	0.017403185
67	0xf2	-0.0071660173
68	0xdb	-0.01893876
69	0xfb	-0.002559292
70	0x49	0.03736566
71	0x45	0.03531823
72	0x2f	0.024057344
73	0x2e	0.023545485
74	0x0e	0.0071660173
75	0xde	-0.017403185
76	0xe8	-0.012284601
77	0x16	0.011260884
78	0x0e	0.0071660173
79	0x2a	0.021498052
80	0x1c	0.014332035
81	0x46	0.035830088
82	0x2b	0.022009911
83	0x26	0.019450618
84	0xd4	-0.022521768
85	0xd5	-0.022009911
86	0x16	0.011260884
87	0x26	0.019450618
88	0x2f	0.024057344
89	0x10	0.008189734
90	0xe1	-0.01586761
91	0xe7	-0.01279646
92	0x08	0.004094867
93	0x34	0.026616637
94	0x10	0.008189734
95	0x1c	0.014332035
96	0x27	0.019962477
97	0x0a	0.005118584
98	0xe5	-0.013820176
99	0xff	-0.0005118584
100	0xdc	-0.018426903
101	0x06	0.0030711503
102	0xee	-0.009213451
103	0xfd	-0.0015355751
104	0x18	0.012284601
105	0x0f	0.0076778755
106	0xea	-0.011260884
107	0x00	0.0
108	0x26	0.019450618
109	0x22	0.017403185
110	0x0e	0.0071660173
111	0x58	0.045043536
112	0x05	0.002559292
113	0x00	0.0
114	0x11	0.008701593
115	0x22	0.017403185
116	0x0c	0.0061423006
117	0x2d	0.023033626
118	0x15	0.010749026
119	0x04	0.0020474335
120	0xed	-0.009725309
121	0x3e	0.03173522
122	0x1f	0.01586761
123	0x1d	0.014843893
124	0x0a	0.005118584
125	0x01	0.0005118584
126	0xec	-0.010237168
127	0x22	0.017403185
128	0x16	0.011260884
129	0xe5	-0.013820176
130	0xc9	-0.02815221
131	0x0f	0.0076778755
132	0xcb	-0.027128493
133	0xd2	-0.023545485
134	0x05	0.002559292
135	0x38	0.02866407
136	0x36	0.027640352
137	0x07	0.0035830087
138	0x1d	0.014843893
139	0xeb	-0.010749026
140	0xf5	-0.005630442
141	0xea	-0.011260884
142	0x1f	0.01586761
143	0xf2	-0.0071660173
144	0xed	-0.009725309
145	0xf4	-0.0061423006
146	0xe0	-0.016379468
147	0xd7	-0.020986194
148	0x09	0.0046067256
149	0x0a	0.005118584
150	0x00	0.0
151	0x1b	0.013820176
152	0x0a	0.005118584
153	0xf2	-0.0071660173
154	0xf4	-0.0061423006
155	0xed	-0.009725309
156	0x0d	0.006654159
157	0x0b	0.005630442
158	0xf9	-0.0035830087
159	0xed	-0.009725309
160	0xe0	-0.016379468
161	0xe7	-0.01279646
162	0xdd	-0.017915044
163	0xd2	-0.023545485
164	0xf2	-0.0071660173
165	0x1e	0.015355751
166	0xd6	-0.021498052
167	0xe4	-0.014332035
168	0xdc	-0.018426903
169	0xfd	-0.0015355751
170	0xca	-0.027640352
171	0xe9	-0.0117727425
172	0xdc	-0.018426903
173	0xf3	-0.006654159
174	0xcb	-0.027128493
175	0x06	0.0030711503
176	0x23	0.017915044
177	0xef	-0.008701593
178	0x36	0.027640352
179	0x30	0.024569202
180	0x21	0.016891327
181	0xe3	-0.014843893
182	0xe1	-0.01586761
183	0xe2	-0.015355751
184	0xff	-0.0005118584
185	0xed	-0.009725309
186	0xf3	-0.006654159
187	0xed	-0.009725309
188	0x19	0.01279646
189	0xdd	-0.017915044
190	0x1c	0.014332035
191	0xfc	-0.0020474335
192	0x13	0.009725309
193	0x01	0.0005118584
194	0x06	0.0030711503
195	0xfb	-0.002559292
196	0xf9	-0.0035830087
197	0x25	0.01893876
198	0x01	0.0005118584
199	0xf5	-0.005630442
200	0xee	-0.009213451
201	0x17	0.0117727425
202	0x28	0.020474335
203	0x13	0.009725309
204	0xf2	-0.0071660173
205	0x1d	0.014843893
206	0x05	0.002559292
207	0x1b	0.013820176
208	0xd5	-0.022009911
209	0xee	-0.009213451
210	0xe9	-0.0117727425
211	0xe7	-0.01279646
212	0xbd	-0.034294512
213	0x07	0.0035830087
214	0xfc	-0.0020474335
215	0xff	-0.0005118584
216	0x07	0.0035830087
217	0xf7	-0.0046067256
218	0xec	-0.010237168
219	0xf8	-0.004094867
220	0x13	0.009725309
221	0x19	0.01279646
222	0xe4	-0.014332035
223	0x05	0.002559292
224	0xec	-0.010237168
225	0x10	0.008189734
226	0x1b	0.013820176
227	0x15	0.010749026
228	0x17	0.0117727425
229	0x04	0.0020474335
230	0x0d	0.006654159
231	0x04	0.0020474335
232	0xd4	-0.022521768
233	0x08	0.004094867
234	0x11	0.008701593
235	0xd4	-0.022521768
236	0xcb	-0.027128493
237	0x0e	0.0071660173
238	0x1b	0.013820176
239	0x1a	0.013308318
240	0xe4	-0.014332035
241	0x21	0.016891327
242	0x10	0.008189734
243	0x05	0.002559292
244	0x0c	0.0061423006
245	0x01	0.0005118584
246	0x14	0.010237168
247	0xdb	-0.01893876
248	0xdb	-0.01893876
249	0xdf	-0.016891327
250	0xea	-0.011260884
251	0xde	-0.017403185
252	0x0e	0.0071660173
253	0xf5	-0.005630442
254	0xc4	-0.030711502
255	0xd2	-0.023545485
