models/compressed_MFCC/model_CNNA.tflite (tflite, 208968 bytes, 18 tensors)

sequential_10/conv2d_52/BiasAdd/ReadVariableOp f4 [16]
0	0x3aee8697	0.001819807
1	0xbab31628	-0.0013663219
2	0xbb233027	-0.0024900527
3	0x3b305d1c	0.0026910966
4	0x3d0cd1a7	0.034379628
5	0xbaa090bb	-0.0012250164
6	0xbc184802	-0.009294512
7	0xbc41de1f	-0.011832743
8	0xbbc3049d	-0.0059514777
9	0x3b011cdc	0.001970104
10	0x397e896a	0.00024274518
11	0xbbdea7c6	-0.0067949025
12	0x3ce683cc	0.028139018
13	0x3bf05e12	0.007335433
14	0xb9f4a6be	-0.0004666354
15	0x3b532728	0.0032219384

sequential_10/conv2d_53/BiasAdd/ReadVariableOp f4 [32]
0	0x3be8b8ed	0.007102123
1	0x3bc20fc4	0.0059222896
2	0x3a08c52d	0.000521737
3	0x3c474848	0.012163229
4	0xb9e840ab	-0.0004429867
5	0x3ac9a443	0.0015384037
6	0xbb8d958b	-0.0043208054
7	0xbc0123d1	-0.007882074
8	0x3c671bf8	0.014105789
9	0x3b4fc50b	0.003170314
10	0x3b03ad7e	0.0020092423
11	0xbbf778c3	-0.0075522377
12	0x3c8fd44a	0.017557282
13	0xbc07dd8e	-0.008292569
14	0xbb3c2680	-0.0028709471
15	0xbb5ec272	-0.003399041
16	0xbc6147c6	-0.013750022
17	0x3b19cd10	0.0023468174
18	0x3b6ef0db	0.003645948
19	0xbbbe0d91	-0.005799957
20	0xba0329dc	-0.0005003491
21	0xbb1a27c7	-0.0023522244
22	0x3bd30d32	0.006440782
23	0x3adac487	0.001669065
24	0xbb856821	-0.004071251
25	0xbc1bc1bb	-0.009506638
26	0x3cc69dde	0.024245199
27	0x3a8307ff	0.000999689
28	0x3c8838fe	0.016628738
29	0x3c23508f	0.009967937
30	0x3b85b2a7	0.004080135
31	0xb996d306	-0.00028767454

sequential_10/conv2d_54/BiasAdd/ReadVariableOp f4 [64]
0	0xbad93d7a	-0.0016574108
1	0x3beafe63	0.0071714385
2	0x3c30b09c	0.010784294
3	0x3c8c9ea5	0.017165491
4	0xbc22b86e	-0.009931667
5	0x3c2301bc	0.009949144
6	0xbc35642a	-0.011071244
7	0xbcc0ed4a	-0.023550648
8	0xbc06113b	-0.008182819
9	0x3c235fe1	0.00997159
10	0x3beecc6e	0.0072875535
11	0xbbaf9f62	-0.005359576
12	0xba937c34	-0.0011252225
13	0xbc498cad	-0.012301606
14	0x3c23d7d0	0.010000184
15	0x3c68d758	0.014211498
16	0xbbfd8820	-0.0077371746
17	0x3bff78cb	0.007796382
18	0x3b384c1c	0.0028121537
19	0x3c1b1ce7	0.00946734
20	0xbc919f43	-0.017776137
21	0x3ca29f2c	0.01985129
22	0xbbcb4cf2	-0.006204241
23	0x3c80eac8	0.015736952
24	0xbb96a1ca	-0.0045969235
25	0xbbb133b3	-0.0054077744
26	0x3c8848db	0.016636303
27	0xbc82b425	-0.01595504
28	0x3c04b7c8	0.0081004575
29	0xbbc67980	-0.0060569644
30	0x3b0d8a30	0.0021597259
31	0xbb0fbf85	-0.0021934223
32	0xbb0e442f	-0.002170812
33	0xbb89757e	-0.0041949144
34	0xbb8af09a	-0.0042401077
35	0x3b698c76	0.00356367
36	0x3c5db7ce	0.013532592
37	0x3b01624f	0.0019742434
38	0x3c275e83	0.010215404
39	0xbaf6f3f0	-0.001884101
40	0xba8514bd	-0.0010153275
41	0xba20f3da	-0.00061398523
42	0x3ba09b0b	0.004901295
43	0xbc1e352f	-0.009656235
44	0x3b6f1547	0.0036481188
45	0xbc1f2870	-0.009714231
46	0xbc42dbc7	-0.011893219
47	0xba400a5c	-0.00073257624
48	0x3aca1f09	0.0015420626
49	0x3c259014	0.010105152
50	0x3aacb5d5	0.0013176749
51	0xba15c71d	-0.0005713569
52	0xba94bac1	-0.0011347161
53	0xbb7ad281	-0.0038272443
54	0x3c83b7b1	0.016078802
55	0xbc021c47	-0.007941312
56	0xbc9397a4	-0.018016644
57	0xbb1028ff	-0.0021997092
58	0xbc82c579	-0.015963303
59	0xbc8b3c41	-0.016996505
60	0x3ac2ea8c	0.0014870926
61	0xbc23b892	-0.009992735
62	0x3c4cea3d	0.012507019
63	0x3c21c548	0.009873696

sequential_10/conv2d_52/Conv2D f4 [16, 3, 3, 1]
0	0x3d66a99d	0.0563141
1	0xbe059020	-0.1304326
2	0x3d867acb	0.0656639
3	0x3d0fef7a	0.035140492
4	0xbd8f52e3	-0.06998231
5	0xbe3aee57	-0.18254982
6	0x3d13b261	0.036058787
7	0x3cf579f8	0.029965386
8	0x3d256071	0.040375177
9	0xbdf9b5a1	-0.12192846
10	0xbe2941bd	-0.16528983
11	0x3d914029	0.07092316
12	0x3dd8873c	0.10572669
13	0xbe235c85	-0.15953262
14	0xbe24174c	-0.16024512
15	0xbc88bb35	-0.01669083
16	0x3e0531af	0.13007234
17	0xbd99a7f8	-0.075027406
18	0xbe04f66e	-0.1298463
19	0xbe3626d0	-0.17788243
20	0xbdc431c8	-0.095798075
21	0x3d799cf1	0.060940687
22	0xbd5291bb	-0.05140851
23	0x3d74c534	0.05975838
24	0x3d67ca1f	0.056589242
25	0xbde3f541	-0.11130763
26	0xbc41f0c2	-0.011837186
27	0x3dc247a4	0.094863206
28	0xbd99bcf6	-0.075067446
29	0x3d132e16	0.035932623
30	0xbd0834ce	-0.033253483
31	0x3b13431b	0.0022470418
32	0xbe58c8f5	-0.21170409
33	0xbd49727c	-0.049181446
34	0xbe3ec26e	-0.18628857
35	0x3e05ecf7	0.13078676
36	0x3caab8a9	0.020840006
37	0x3db461cb	0.08807715
38	0xbd3019fb	-0.042993527
39	0x3dcdef16	0.10055368
40	0x3d907993	0.070544384
41	0x3e3f0864	0.18655545
42	0x3e34efcc	0.176696
43	0xbd51f62f	-0.05126017
44	0x3c814421	0.015779557
45	0x3d95bf68	0.073118985
46	0xbe149be1	-0.14512588
47	0x3df8b6c7	0.12144237
48	0xbe21ffc9	-0.1582023
49	0xbe419fb8	-0.18908584
50	0xbe1c786f	-0.15280317
51	0x3dd823f4	0.105537325
52	0xbe0b83c3	-0.13624482
53	0x3e030e78	0.12798488
54	0xbe2e7fcd	-0.1704094
55	0x3e2766c3	0.16347794
56	0xbe03477c	-0.12820238
57	0x3e030e12	0.12798336
58	0x3de3dc95	0.11126057
59	0xbde0b32b	-0.109716736
60	0x3ddd2fcc	0.10800132
61	0x3c277276	0.010220161
62	0xbde53b88	-0.11192995
63	0xbde805ec	-0.113292545
64	0x3e1c5b42	0.15269187
65	0xbe15d0a8	-0.14630377
66	0x3db11f67	0.08648568
67	0xbe29a779	-0.16567792
68	0xbe387064	-0.18011624
69	0xbd33a01d	-0.043853868
70	0x3db88273	0.09009256
71	0xbe3fbf7b	-0.18725388
72	0x3e27f0ff	0.16400526
73	0xbdcbce0d	-0.099514104
74	0xbe3ed4d0	-0.18635869
75	0x3b409ccb	0.002939033
76	0xbcb372a6	-0.021905255
77	0xbd744a08	-0.059640914
78	0x3ca47b19	0.020078229
79	0x3dca6d4e	0.098841295
80	0xbe1512b8	-0.14557922
81	0xbccf608b	-0.02531459
82	0x3d03d1d3	0.032182526
83	0x3dc73d77	0.0972852
84	0xbde69d8a	-0.11260517
85	0xbdf0189a	-0.117234424
86	0xbe56c33b	-0.20972912
87	0xbde53af9	-0.11192889
88	0x3e179fea	0.14807096
89	0x3c636b78	0.013880603
90	0x3e21868e	0.15773985
91	0xbdb2b7f7	-0.08726495
92	0x3d51a852	0.051185913
93	0xbd918c9c	-0.07106897
94	0x3d08e227	0.0334188
95	0xbdbfd9f8	-0.09367746
96	0x3df90b86	0.12160401
97	0x3d465429	0.048420105
98	0x3e0e8739	0.13918771
99	0x3e3ba106	0.18323144
100	0x3bf7ccb0	0.0075622424
101	0x3c2cee43	0.010554853
102	0x3da08353	0.07837548
103	0x3d5cb9c5	0.0538881
104	0xbe3fc63c	-0.18727964
105	0xbe36a99e	-0.17838141
106	0x3db0edc8	0.08639103
107	0xbd6131e3	-0.054979216
108	0x3d84ca3f	0.06483888
109	0x3dd96404	0.106147796
110	0x3ce9d2c2	0.02854288
111	0x3dd8ff3b	0.10595556
112	0x3e125c9e	0.14293143
113	0x3e0a8534	0.13527375
114	0xbe03a382	-0.12855342
115	0xbd888723	-0.066664
116	0xbd8ea3bb	-0.06964823
117	0xbe28299e	-0.16422126
118	0x3d24f17a	0.040269352
119	0xbe005914	-0.1253398
120	0xbe3c5b76	-0.18394265
121	0x3d775c51	0.060390774
122	0x3e40be3c	0.18822569
123	0xbe34745d	-0.17622514
124	0x3c83974f	0.01606336
125	0x3d129fe3	0.03579701
126	0x3d8b8e76	0.06814282
127	0xbe52c612	-0.2058337
128	0xbd2bbf06	-0.04193022
129	0x3d0f4dda	0.034986354
130	0xbe0a115e	-0.13483188
131	0xbcda2c08	-0.026632324
132	0x3d3838d4	0.04497607
133	0x3d2d9cd3	0.042385887
134	0x3c57d481	0.0131732235
135	0xbd8a4ee2	-0.06753327
136	0xbda0e4e1	-0.07856155
137	0xbe5e5659	-0.21712627
138	0xbe03e37f	-0.12879752
139	0xbe32fde0	-0.17479658
140	0xbe531fab	-0.20617549
141	0xbc01952b	-0.0079091
142	0x3e07b925	0.13254221
143	0xbd7b8af5	-0.061411817

sequential_10/conv2d_53/Conv2D f4 [32, 3, 3, 16]
0	0xbdef4922	-0.11683871
1	0xbc2b20fb	-0.010444875
2	0xbdcabefd	-0.098997094
3	0xbd66c6e1	-0.05634201
4	0x3a71ae0d	0.0009219356
5	0x3dc1bbdc	0.094596595
6	0x3c69666f	0.0142456135
7	0x3b87a343	0.0041393354
8	0xbcad3ad2	-0.021146212
9	0xbdda6256	-0.10663287
10	0x3bf0f759	0.007353705
11	0x3dce41fb	0.100711785
12	0xbdaac7c5	-0.08338884
13	0x3d2947a1	0.041328076
14	0x3c9fc935	0.019505123
15	0xbbfe88a3	-0.007767753
16	0xbd346e4b	-0.044050496
17	0x3db12582	0.08649732
18	0x3c1d9d32	0.009619998
19	0xbddcb3c0	-0.10776472
20	0x3d96447a	0.073372796
21	0xbda04ff8	-0.07827753
22	0x3d9a8216	0.07544343
23	0xbd94129c	-0.07230112
24	0xbdeb0445	-0.11475424
25	0x3df06c46	0.117394015
26	0x3d8802eb	0.066411816
27	0x3a2196fe	0.0006164162
28	0x3bd3fd4c	0.0064694043
29	0x3dd64782	0.10462858
30	0x3dc8df83	0.098082565
31	0x3d8fddd1	0.0702473
32	0x3d890beb	0.06691726
33	0x3c76a8e6	0.015054917
34	0x3d076b42	0.033061273
35	0x3ccf8705	0.025332937
36	0xbd8ca1a2	-0.068667665
37	0xbcee5674	-0.029093958
38	0x3d95b7e3	0.07310464
39	0xbb955e9c	-0.0045583975
40	0x3c79f187	0.0152553385
41	0xbc7c90a6	-0.015415346
42	0xbe06c025	-0.13159235
43	0xbdc0db2e	-0.09416805
44	0x3bc9e2c7	0.006161067
45	0x3dd0e6cc	0.10200271
46	0xb8d5f3ca	-0.00010202041
47	0x3ca8315f	0.020531354
48	0xbddb6dff	-0.107143395
49	0xbd179deb	-0.037015837
50	0xbdb85da6	-0.09002237
51	0x3dc78a02	0.0974312
52	0xbdc44f9a	-0.09585495
53	0x3cbb3033	0.022850132
54	0xbd863aa9	-0.06554157
55	0xbda69941	-0.081346996
56	0x3d503e09	0.05084041
57	0xbcca5327	-0.024697853
58	0xbb457cd4	-0.0030134218
59	0x3ce29dea	0.02766319
60	0x3bbffeae	0.0058592176
61	0xbda28c32	-0.079368964
62	0xbc5eb243	-0.013592306
63	0xbb33dafa	-0.0027443753
64	0x3d7ed276	0.06221243
65	0xbc873a30	-0.016507238
66	0xbcb4cfa6	-0.02207167
67	0x3dc058b9	0.093919225
68	0x3d8f6b4e	0.070028886
69	0xbd3eb4aa	-0.046559013
70	0xbdb1addf	-0.086757414
71	0xbd3bb1ed	-0.04582398
72	0x3ce99c2a	0.028516848
73	0x3dd28301	0.10278893
74	0xbd8c38c2	-0.06846763
75	0xbca4e71b	-0.02012973
76	0xbd8bf90a	-0.0683461
77	0x3daf27ef	0.085525386
78	0x3d50395d	0.050835956
79	0xbd9f58c3	-0.07780602
80	0x3dc111e8	0.094272435
81	0xbd3df0be	-0.046372168
82	0xbdc094d5	-0.094033875
83	0x3e002d31	0.12517239
84	0x3d48d9de	0.0490359
85	0x3d3c6be6	0.046001337
86	0xbd0ae927	-0.033913758
87	0xbbc0f47d	-0.0058885203
88	0x3db1d653	0.08683457
89	0x3e0459ee	0.1292493
90	0xbd9b947c	-0.075966805
91	0x3dd4d38f	0.10391914
92	0xbd9f5dd7	-0.077815704
93	0xbd892ca8	-0.06697971
94	0x3d304609	0.04303554
95	0xbda75fb2	-0.08172549
96	0x3d819ee6	0.063291356
97	0xbc2e7b2f	-0.010649486
98	0x3d814520	0.06312013
99	0xbda733b1	-0.08164156
100	0x3d1dae0a	0.038496055
101	0x3d98c364	0.07459143
102	0xbd6912ee	-0.05690282
103	0x3da8ae45	0.08236364
104	0x3c712e86	0.014720565
105	0xbd8f898f	-0.07008659
106	0xbe0183bb	-0.12647907
107	0x3dc4e4c5	0.09613947
108	0xbdcb3569	-0.099222966
109	0xbd1c4704	-0.038153663
110	0xbc3dd520	-0.0115864575
111	0xbda8a09b	-0.08233758
112	0x3dc60e45	0.096706904
113	0x3ddf24e0	0.10895705
114	0x3d8be3f9	0.06830592
115	0x3d8b07d2	0.06788601
116	0x3cda72a5	0.026665995
117	0xbd941d96	-0.072322056
118	0x3a95b57e	0.0011421887
119	0x3dc52ce9	0.096277066
120	0x3d9fb14a	0.07797487
121	0xbd63d425	-0.05562224
122	0xbc800221	-0.015626015
123	0x3dc3de95	0.095639385
124	0xbda4d6b4	-0.08048764
125	0x3cbc3966	0.022976588
126	0xbd9f8351	-0.077887185
127	0xbdec92fb	-0.11551472
128	0xbcaa917b	-0.020821324
129	0xbd6f6a51	-0.058451
130	0x3cc027ae	0.02345642
131	0x3d4d7457	0.05015978
132	0xbddcff8f	-0.107909314
133	0x3d3a2b59	0.045451496
134	0xbca2a918	-0.01985602
135	0x3d97db11	0.074148305
136	0x3dbef056	0.09323184
137	0x3c94a7de	0.018146452
138	0xbd9a29bd	-0.07527492
139	0x3dd56a02	0.1042061
140	0x3dc36347	0.0954042
141	0xbd13f479	-0.03612182
142	0x3bd56395	0.0065121152
143	0x3d8aaeea	0.067716435
144	0x3d5f3a0e	0.054498725
145	0xbc586e1f	-0.013209849
146	0x3c8d5dd7	0.01725666
147	0x3c9c226f	0.019059388
148	0xbd451475	-0.048115212
149	0xbd9c7ad0	-0.07640612
150	0x3dc48239	0.095951505
151	0xbce54030	-0.027984709
152	0xbd72c290	-0.05926758
153	0x3de18bfe	0.110130295
154	0xbb5f3710	-0.003405992
155	0x3d716a89	0.05893949
156	0x3d089374	0.033343747
157	0xbc8bf605	-0.017085085
158	0xbd8a3576	-0.06748478
159	0xbb9d4d1d	-0.0048004524
160	0x3d85d252	0.06534256
161	0x3d38a375	0.04507776
162	0x3d692b92	0.056926318
163	0xbc88a40f	-0.016679792
164	0xbde6f4e7	-0.1127718
165	0xbb98847c	-0.0046544652
166	0xbdc85847	-0.097824626
167	0x3caef951	0.021359118
168	0xbd616236	-0.055025302
169	0x3e00c96b	0.12576835
170	0x3d307336	0.043078624
171	0xbd92afd0	-0.0716244
172	0xbc6a0c5e	-0.014285175
173	0x3dcec8e5	0.10096911
174	0xbd79870f	-0.060919818
175	0xbd2276af	-0.039663967
176	0x3d80adc1	0.06283141
177	0xbd551dde	-0.052030437
178	0x3d73cb0f	0.059519824
179	0x3d74a396	0.05972632
180	0xbdb16fa9	-0.086638756
181	0xbbeb367e	-0.007178127
182	0x3debf264	0.11520842
183	0x3dc4b80f	0.09605419
184	0x3b7defce	0.003874767
185	0xbdc3ebc8	-0.09566456
186	0xbdbf8e9a	-0.09353371
187	0x3d4e8ecd	0.050429154
188	0xbd93f6fb	-0.07224842
189	0xbdaa4501	-0.08313943
190	0xbd35b058	-0.044357628
191	0x3d2f939e	0.042865388
192	0x3d94430a	0.07239349
193	0x3d99bb7b	0.07506462
194	0x3d9e6a9a	0.077351764
195	0x3d6a4160	0.057191253
196	0xbd862061	-0.065491445
197	0x3d1ca2fc	0.03824137
198	0xbd86fc9a	-0.06591149
199	0x3ddc7894	0.10765186
200	0x3e07bda4	0.13255936
201	0x3d7b1e0a	0.061307944
202	0xbd459118	-0.048234075
203	0x3d18a8a1	0.037270192
204	0xbd0e9c26	-0.034816884
205	0x3c94a877	0.018146737
206	0x3d6bca73	0.057566117
207	0xbd81220c	-0.06305322
208	0x3d8d0311	0.068853505
209	0x3d117753	0.035514187
210	0x3d8de017	0.06927507
211	0xbdb5b1a2	-0.088717714
212	0xbc5ce56b	-0.013482432
213	0x3da8074c	0.08204517
214	0xbd99733a	-0.07492681
215	0xbcd250b4	-0.025673248
216	0xbd2b7f43	-0.041869413
217	0xbc06fc74	-0.0082389
218	0xbd36af86	-0.044600986
219	0x3de9aa3c	0.11409423
220	0x3c915c26	0.017744135
221	0xbdc838f0	-0.09776485
222	0x3dd67959	0.10472364
223	0xbdad9a8b	-0.08476742
224	0x3c60337d	0.013684151
225	0x3b85c864	0.0040827263
226	0xbda070b0	-0.078339934
227	0x3cbea0c3	0.023270017
228	0xbdded538	-0.10880512
229	0x3c98841a	0.018617678
230	0xbcdcaea4	-0.026938744
231	0xbd72d108	-0.05928138
232	0x3d36449b	0.04449902
233	0x3df50d3c	0.11965415
234	0x3d0ce973	0.034402322
235	0x3df558c1	0.11979819
236	0x3db791c3	0.08963349
237	0xbd612a02	-0.054971702
238	0x3df03ef4	0.11730757
239	0x3ce9462e	0.028475847
240	0x3db5aa35	0.08870355
241	0x3da8a696	0.08234899
242	0xbc43cf3e	-0.011951266
243	0xbd5d69ff	-0.054056164
244	0xbd2beb0a	-0.041972198
245	0x3dc8187a	0.097702935
246	0xbd9ca1e7	-0.07648068
247	0xbc87ded6	-0.016585749
248	0xbc3daf2d	-0.01157741
249	0x3df348c6	0.11879115
250	0xbd17738b	-0.036975425
251	0x3d0ade41	0.033903364
252	0x3d863fb2	0.06555118
253	0xbbe3517e	-0.006937205
254	0x3d68c6db	0.05683027
255	0xbcb1050b	-0.02160885

sequential_10/conv2d_54/Conv2D f4 [64, 3, 3, 32]
0	0x3d11618c	0.03549342
1	0x3cf8cd98	0.030371472
2	0x3ccf8b5c	0.025335006
3	0x3cecbd08	0.02889873
4	0xbda54ae9	-0.080709286
5	0x3d8ec2d4	0.06970754
6	0x3c22cbe0	0.009936303
7	0xbda654fc	-0.08121678
8	0x3d057aed	0.032587934
9	0x3d3e7650	0.04649955
10	0xbc62e670	-0.013848886
11	0x3d265a88	0.04061368
12	0xbd90a525	-0.07062749
13	0x3d8d921b	0.06912633
14	0xbd73d44a	-0.059528627
15	0xbd80465b	-0.06263419
16	0xbcaf9236	-0.021432023
17	0xbd3b4df1	-0.045728628
18	0x3d2abb71	0.041682664
19	0x3da7a498	0.08185691
20	0xbc8778e4	-0.016537137
21	0xbd26c615	-0.04071625
22	0x3d393d1e	0.0452243
23	0x3ced0533	0.028933143
24	0x3c772cea	0.015086392
25	0xbd034a28	-0.032053143
26	0x3c49ebd7	0.012324295
27	0x3cfb1bc6	0.030652892
28	0xbd841d00	-0.06450844
29	0xbc60a606	-0.013711458
30	0x3c8efdc9	0.017454999
31	0x3d15a1b2	0.036531158
32	0xbcee5e01	-0.029097559
33	0xbdb0aa15	-0.086261906
34	0xbd7bef65	-0.0615076
35	0x3c59faa3	0.013304385
36	0xbda2260f	-0.07917415
37	0x3c80fcd9	0.015745567
38	0xbd918cc5	-0.07106928
39	0xbd6b14de	-0.057392947
40	0x3d169a7a	0.036768414
41	0xbd5abb85	-0.05340149
42	0xbd045883	-0.032310974
43	0xbce6ace4	-0.028158613
44	0xbd578cbc	-0.05262445
45	0xbd1d0960	-0.03833902
46	0xbc8ec985	-0.017430076
47	0x3af227a4	0.0018474949
48	0xbac5d128	-0.0015092241
49	0xbda1d62c	-0.07902178
50	0xbd223a4f	-0.03960639
51	0xbd3175c2	-0.043325193
52	0x3d00ddf6	0.03146168
53	0x3c1db6da	0.009626115
54	0xbce03902	-0.027370933
55	0xbcdba1d4	-0.026810564
56	0xbb86b9eb	-0.0041115186
57	0x3c915bfc	0.017744057
58	0xbdc7bbba	-0.09752603
59	0xbd344f9e	-0.04402124
60	0x3c1b65b7	0.0094847
61	0xbc49e158	-0.012321793
62	0x3b1e8285	0.0024186682
63	0xbd967a19	-0.07347507
64	0xbcbfa640	-0.023394704
65	0xbcd198a8	-0.025585487
66	0x3b898a20	0.004197374
67	0x3c9394d2	0.018015299
68	0x3d8165b6	0.06318228
69	0xbc3ef665	-0.011655425
70	0xbd0e0c2c	-0.034679577
71	0xbc8c77e2	-0.017147008
72	0xbcae1a51	-0.021252783
73	0xbc543422	-0.012951883
74	0xbd7ea897	-0.0621725
75	0x3d02d665	0.031942744
76	0xbd7fe6c0	-0.06247592
77	0x3d5424bc	0.051792845
78	0x3d865e37	0.06560939
79	0x3d6e803f	0.058227774
80	0xbd814bf4	-0.06313315
81	0x3c29310b	0.010326634
82	0xbd809afc	-0.06279561
83	0xbdba5b3a	-0.09099431
84	0x3d34692c	0.044045612
85	0x3cf0257e	0.029314753
86	0xbcfdd943	-0.030987388
87	0x3c38b6d1	0.011274056
88	0xbda7023b	-0.08154722
89	0x3a45731b	0.00075321057
90	0xbdb75483	-0.08951666
91	0x3d23a8e1	0.039955977
92	0x3d7274d2	0.05919344
93	0x3c867050	0.016410977
94	0xbcc22b46	-0.023702275
95	0x3d202d69	0.039105806
96	0xbd89f8e8	-0.06736928
97	0x3cfc38af	0.030788748
98	0xbcc6a91d	-0.024250561
99	0x3d827d25	0.06371526
100	0x3ca65e3e	0.02030861
101	0xbd461645	-0.04836108
102	0xbb3069b2	-0.0026918468
103	0x3cf49fe2	0.029861394
104	0xbc0445fe	-0.008073328
105	0x3db79b66	0.08965187
106	0x3cd59fc9	0.026077168
107	0xbd8facbc	-0.07015368
108	0x3d013de4	0.031553164
109	0xbce462a7	-0.027879072
110	0x3c308406	0.010773664
111	0xbd831128	-0.06399757
112	0x3d93c4ac	0.072152466
113	0xbcf210b9	-0.02954899
114	0x3d525284	0.051348224
115	0xbbad9422	-0.0052972
116	0xbda7d17c	-0.08194253
117	0xbc9dc0ec	-0.019257031
118	0xbd8cdfea	-0.06878646
119	0xbcd7265f	-0.026263414
120	0x3d34276d	0.04398291
121	0x3c5932ee	0.0132567715
122	0xbcdaeba0	-0.026723683
123	0x3ce6ede1	0.028189601
124	0x3caacfaf	0.020850984
125	0x3d39322e	0.04521387
126	0x3a64f8ac	0.0008734565
127	0xbd7113bb	-0.058856707
128	0xbc11eafe	-0.008906124
129	0xbd320ce0	-0.04346931
130	0x3d8a484f	0.06752073
131	0xbcfe62f1	-0.031053038
132	0xbd09d4ba	-0.033650137
133	0xbd52f6d1	-0.051504914
134	0x3d51509c	0.051102266
135	0x3d2171d8	0.03941521
136	0xbd88f552	-0.06687416
137	0xbd4f49d1	-0.050607506
138	0xbd05f347	-0.03270271
139	0x3cca31dd	0.02468198
140	0xbd02d4eb	-0.031941336
141	0xbbb41edb	-0.0054968423
142	0x3cbcbe5b	0.023039987
143	0x3d7dee34	0.061994746
144	0xbc524b32	-0.012835311
145	0x3c1b9cd8	0.009497844
146	0xbd8e448a	-0.069466665
147	0xbc62878f	-0.013826265
148	0x3d7df6db	0.062002998
149	0x3d3cc4d0	0.046086133
150	0xbc225612	-0.009908216
151	0x3cab8955	0.020939508
152	0x3d79bf9d	0.060973752
153	0x3d06c482	0.03290225
154	0x3d01bf0c	0.031676337
155	0x3a50035c	0.0007935071
156	0xbcb19bdf	-0.02168077
157	0x3c078e07	0.008273608
158	0x3cc61a02	0.024182323
159	0x3c6dd99a	0.014517212
160	0x3cd302cc	0.02575817
161	0xbd7b8c4a	-0.061413087
162	0xbd6c3757	-0.057669964
163	0xbdb2c513	-0.08728995
164	0x3cb109e5	0.021611163
165	0x3cef7b55	0.029233614
166	0xbd9bf49d	-0.07615016
167	0xbcf46858	-0.029834911
168	0xbd636e37	-0.05552503
169	0x3c65a1be	0.014015613
170	0xbda5ed49	-0.08101899
171	0xbd54c90d	-0.05194955
172	0xbd3f3764	-0.046683684
173	0x3b4ad785	0.0030951214
174	0xbd2489de	-0.040170543
175	0xbb8197b1	-0.0039548506
176	0xbd8cfa9f	-0.0688374
177	0x3d9a3e9e	0.075314745
178	0x3ce83ea5	0.028350184
179	0xbd8096ac	-0.062787384
180	0x3d035dac	0.032071754
181	0xbd03c99c	-0.03217469
182	0xbd2c07ac	-0.041999504
183	0x3d9af394	0.0756599
184	0x3d109545	0.035298605
185	0x3c965f89	0.018356102
186	0xbd9a36fc	-0.07530019
187	0xbcc1603a	-0.023605455
188	0xbcbafece	-0.022826578
189	0xbd453ca0	-0.04815352
190	0xbd85dde4	-0.06536463
191	0xbcb5860b	-0.022158643
192	0x3d8ff8ef	0.07029902
193	0x3d8918cd	0.066941835
194	0x3d37dc02	0.04488755
195	0x3c603787	0.013685114
196	0x3d4cd6ba	0.050009467
197	0x3cc8c3a4	0.024507351
198	0x3bb63723	0.005560772
199	0x3d15200d	0.03640752
200	0xbd9b88a1	-0.07594419
201	0x3cae5c27	0.021284176
202	0xbdb72913	-0.08943381
203	0x3d3dc55f	0.046330806
204	0x3d84a7db	0.064773284
205	0xbc644f50	-0.013934925
206	0xbda1584d	-0.0787817
207	0xbda661c0	-0.08124113
208	0x3da56c08	0.08077246
209	0x3c922f72	0.01784489
210	0xbc6b4acc	-0.014361095
211	0xbcdd69e0	-0.027028024
212	0x3cf0bb03	0.02938605
213	0xbd948576	-0.07252018
214	0x3daea73f	0.085279934
215	0xbd35db9e	-0.044398896
216	0x3ba17ca3	0.004928188
217	0xbd9ab9ae	-0.07554947
218	0xbc830c30	-0.015997022
219	0x3d8e8048	0.069580615
220	0x3dc1b83d	0.09458969
221	0x3dd53537	0.104105406
222	0xbcec0093	-0.028808868
223	0xbc9e7c07	-0.01934625
224	0x3daf85de	0.08570455
225	0xbd1ba0aa	-0.037995018
226	0x3ca19741	0.019725444
227	0x3d4c448f	0.04987007
228	0x3da974bb	0.08274218
229	0xbd6e79e1	-0.0582217
230	0x3d79eab4	0.061014846
231	0xbbab4a8a	-0.0052273916
232	0x3ccca835	0.024982551
233	0xbda54830	-0.08070409
234	0xbd78a094	-0.060700014
235	0x3dae2628	0.085033715
236	0x3d46644a	0.048435487
237	0xbd541f2a	-0.051787533
238	0xbcfda601	-0.030962946
239	0x3d40a5de	0.047033183
240	0xbd9353b2	-0.07193698
241	0xbc99836f	-0.01873943
242	0xbcfa9c74	-0.03059218
243	0x3d3bb4a3	0.045826565
244	0x3c08a66f	0.008340462
245	0x3d98b85f	0.07457041
246	0x3d907ef5	0.07055465
247	0x3db715ca	0.08939703
248	0xbd1b7a04	-0.03795816
249	0xbc9456ec	-0.018107854
250	0x3c545907	0.012960679
251	0x3d1c7412	0.03819663
252	0x3cfceab2	0.03087363
253	0x3c711e44	0.014716689
254	0xbd430219	-0.047609422
255	0xbcd27c85	-0.025694141

sequential_10/dense_22/BiasAdd/ReadVariableOp f4 [2]
0	0xbbc3c42e	-0.005974314
1	0x3bc3c42b	0.005974313

sequential_10/dense_21/BiasAdd/ReadVariableOp f4 [32]
0	0x3a06e42c	0.00051456946
1	0xbba177d6	-0.0049276156
2	0x3afb7fb2	0.0019187836
3	0x3c4a7af4	0.012358416
4	0xbbd01208	-0.0063498057
5	0xbadc7d59	-0.0016822024
6	0x3be18cfc	0.0068832617
7	0xbc1c51bf	-0.009540974
8	0xba58ff82	-0.000827782
9	0x3b84a0c9	0.0040474874
10	0x3a5da54a	0.0008455111
11	0x3bca4198	0.00617237
12	0x3c394d8f	0.011309995
13	0x3b41d7fa	0.0029578195
14	0x3b9312c0	0.004488319
15	0x3b0879ab	0.0020824473
16	0x3c3b8898	0.011446141
17	0xbb28c211	-0.0025750438
18	0x3c295cca	0.010337064
19	0x3bd78aa5	0.006577807
20	0xbbfa5d23	-0.0076404973
21	0xba6fe5d2	-0.00091513724
22	0xbb895e8e	-0.00419218
23	0x3bcea216	0.0063059432
24	0xbcd37811	-0.025814088
25	0xbbef4bb6	-0.0073027266
26	0x3a9a085c	0.0011751759
27	0x3c561c5c	0.013068285
28	0x3c02bc92	0.007979529
29	0x3c84bb0d	0.016202474
30	0x3cb8061b	0.022463849
31	0x3c4d125d	0.012516585

sequential_10/dense_20/BiasAdd/ReadVariableOp f4 [64]
0	0xbac21112	-0.0014806113
1	0x3923eac7	0.00015632353
2	0xbbbd152b	-0.0057703457
3	0xbbd16ea8	-0.006391365
4	0x3c91b325	0.017785618
5	0x3c9118ae	0.017711964
6	0xbb728f0f	-0.003701154
7	0xbb08133f	-0.0020763425
8	0x3bc78d9c	0.006089879
9	0x3ad82e75	0.0016493337
10	0xbba60e15	-0.0050675967
11	0x3be4e9c7	0.0069858762
12	0xbb96f4c7	-0.0046068165
13	0x3bf63050	0.0075130835
14	0xbb8c40a0	-0.004280165
15	0xbc7b180f	-0.01532556
16	0xb96fa020	-0.00022852467
17	0xbc7dfb2d	-0.0155017795
18	0x3bd6429d	0.0065387026
19	0xbb83aa08	-0.004018072
20	0x3b663058	0.003512403
21	0x3bef332e	0.0072998023
22	0xbc6fc159	-0.0146335
23	0x3b291440	0.0025799423
24	0x3b21e837	0.0024705061
25	0x3b3dff8a	0.0028991424
26	0x3c095bab	0.008383672
27	0xbc6da1e1	-0.014503927
28	0x3a4573c6	0.0007532205
29	0x3c6d5e1a	0.014487768
30	0x3b0a6455	0.0021116931
31	0xbbb65fe0	-0.0055656284
32	0xbc0daf77	-0.008647791
33	0x3c0a9553	0.008458453
34	0xbc46f68f	-0.012143745
35	0xbc7958ab	-0.015218894
36	0xba4d3486	-0.0007827956
37	0x3cdf5797	0.027263446
38	0x3a3e2de0	0.0007254761
39	0xbc5cd451	-0.013478355
40	0xbbad3087	-0.005285326
41	0xbc23377d	-0.00996196
42	0x3c5729ac	0.013132494
43	0x3b5402cf	0.0032350307
44	0xbc03d6c2	-0.008046808
45	0x3bccd9ec	0.0062515642
46	0xbc078e52	-0.008273678
47	0x3b80f91e	0.003935947
48	0x3b0a960a	0.002114656
49	0xbc5206d3	-0.01281901
50	0xbc023b93	-0.007948774
51	0xbabc672b	-0.0014374008
52	0xbc18499f	-0.009294896
53	0xba80783f	-0.0009801461
54	0xbc076048	-0.008262701
55	0xbbaecf5e	-0.0053347787
56	0x3a6bf298	0.0009000688
57	0x3b112b8b	0.0022151198
58	0xbc2e2729	-0.010629454
59	0xbbb0351f	-0.0053774263
60	0xbb46149c	-0.0030224686
61	0x3c5eea5a	0.013605678
62	0x3bda6f01	0.0066660647
63	0xbc2732f0	-0.010205016

sequential_10/batch_normalization_51/FusedBatchNormV3 f4 [16]
0	0x3f195c00	0.59906006
1	0x3f0adb5b	0.5424096
2	0x3ea0085b	0.31256375
3	0x3ed4d09e	0.41565412
4	0x3f94ec10	1.163454
5	0x3e5ba8af	0.21451066
6	0x3f7d9d3d	0.9906805
7	0x3f182490	0.5943079
8	0x3f9f9f39	1.2470466
9	0x3ecb6ac0	0.3972988
10	0x3fa53048	1.2905359
11	0x3fb778d0	1.4333744
12	0x3fd73f6c	1.681623
13	0x3e47fdbb	0.19530384
14	0x3eb3a9c0	0.35090446
15	0x3ebdb817	0.37054512

sequential_10/batch_normalization_51/FusedBatchNormV31 f4 [16]
0	0xbe93e8d2	-0.28888565
1	0xbea8634f	-0.32888266
2	0xbe936427	-0.28787348
3	0xbe90da0c	-0.28291357
4	0xbea43683	-0.3207284
5	0xbe962af1	-0.29329637
6	0xbe9c3961	-0.30512527
7	0xbeadc973	-0.33942756
8	0xbea11633	-0.3146225
9	0xbe99c664	-0.30034173
10	0xbea08269	-0.31349495
11	0xbe82a419	-0.25515822
12	0xbe82df6d	-0.25561085
13	0xbe8e335e	-0.27773565
14	0xbe9d90c1	-0.307745
15	0xbec2f2db	-0.3807591

sequential_10/batch_normalization_52/FusedBatchNormV3 f4 [32]
0	0x3f8f1ba4	1.118031
1	0x3f6a404e	0.9150437
2	0x3fa7f715	1.3122278
3	0x3f815f7e	1.0107267
4	0x3fc1eb86	1.5150001
5	0x3fca83ea	1.5821507
6	0x3f85c989	1.0452129
7	0x3fd2dd3b	1.6473764
8	0x3f438cb1	0.76386553
9	0x3fdba115	1.7158533
10	0x3f578d4b	0.8419997
11	0x3fba0ab0	1.4534512
12	0x3f69181a	0.910524
13	0x3f9ab760	1.2087212
14	0x3f94099c	1.1565433
15	0x3fb3f1da	1.4058182
16	0x3fc79ae4	1.5594144
17	0x3f8ae1f7	1.0850209
18	0x3fb15457	1.3853863
19	0x3f8eb023	1.1147503
20	0x3f811649	1.0084926
21	0x3fbca86d	1.47389
22	0x3fcb6b26	1.5892074
23	0x3fb4d468	1.4127321
24	0x3f7ecd70	0.9953222
25	0x3f69b0a8	0.9128518
26	0x3f9bae99	1.2162658
27	0x3f98851b	1.191562
28	0x3f851ccc	1.0399413
29	0x3fec0828	1.8439989
30	0x3f941e25	1.1571699
31	0x3fd8db4e	1.6941926

sequential_10/batch_normalization_52/FusedBatchNormV31 f4 [32]
0	0xbe880dc9	-0.26573017
1	0xbeb374c5	-0.35050026
2	0xbe7b639f	-0.24549721
3	0xbeda7eb3	-0.4267479
4	0xbe8c9ce0	-0.27463436
5	0xbea9cb0f	-0.33162734
6	0xbebf8553	-0.37406406
7	0xbe98daf4	-0.29854548
8	0xbefab050	-0.4896264
9	0xbe889888	-0.26678872
10	0xbeb88cef	-0.36045024
11	0xbe5e2c3b	-0.2169656
12	0xbeb5e8a7	-0.35529062
13	0xbe97d404	-0.29653943
14	0xbea038ad	-0.3129324
15	0xbe8fd3e6	-0.28091353
16	0xbe6a102d	-0.22857733
17	0xbefec5c0	-0.49760246
18	0xbedd8d4a	-0.43271858
19	0xbeab3210	-0.33436632
20	0xbed2c658	-0.4116695
21	0xbe94b193	-0.29041728
22	0xbeaa049b	-0.3320664
23	0xbe84b6e5	-0.25920787
24	0xbee7ee02	-0.45298773
25	0xbef1f96d	-0.4726061
26	0xbec8d9ee	-0.39228767
27	0xbecdcc2a	-0.40194827
28	0xbe9f6f87	-0.31139776
29	0xbe1ec23d	-0.15503784
30	0xbebc6994	-0.367993
31	0xbe9545d2	-0.2915483

sequential_10/batch_normalization_53/FusedBatchNormV3 f4 [64]
0	0x3fb4259b	1.4073976
1	0x3f98e3f1	1.1944562
2	0x3fa80b4e	1.312845
3	0x3f9bd52a	1.2174428
4	0x3f82961b	1.0202059
5	0x3f73f7ea	0.9530016
6	0x3f8ef20d	1.1167618
7	0x3f559007	0.83422893
8	0x3f8ae8a3	1.0852245
9	0x3f72de25	0.94870216
10	0x3f9b505a	1.2133896
11	0x3f8b807f	1.0898589
12	0x3fac5880	1.3464508
13	0x3f8fa925	1.1223494
14	0x3f865927	1.0495957
15	0x3f54f2f5	0.83183223
16	0x3f8415d0	1.0319157
17	0x3f90c664	1.1310544
18	0x3f5b6844	0.8570597
19	0x3f962060	1.172863
20	0x3f9042a7	1.1270341
21	0x3f98142e	1.1881158
22	0x3f9b7b28	1.2146959
23	0x3fa23c8e	1.267473
24	0x3fad1b01	1.3523866
25	0x3fd77cec	1.6834998
26	0x3faf2acc	1.3684936
27	0x3f9ecb25	1.2405745
28	0x3fbb620a	1.4639294
29	0x3f9bb9ae	1.216604
30	0x3f905182	1.1274874
31	0x3f71b88b	0.94422215
32	0x3fced46a	1.6158574
33	0x3f86c7b7	1.0529698
34	0x3f8b6d42	1.0892718
35	0x3fa02aae	1.2513025
36	0x3fc94f4f	1.5727328
37	0x3f66bb02	0.901291
38	0x3f751069	0.95728165
39	0x3f613940	0.8797798
40	0x3f91f73e	1.1403577
41	0x3f89ff07	1.0780953
42	0x3fc165b0	1.5109158
43	0x3f50cb11	0.81559855
44	0x3f97c6ec	1.1857581
45	0x3fa26341	1.268654
46	0x3f96080e	1.1721208
47	0x3fc1b2d8	1.5132704
48	0x3f78667e	0.9703139
49	0x3fc7ca58	1.5608625
50	0x3fba7f2a	1.4570057
51	0x3f9e84e8	1.238431
52	0x3fa39188	1.2778788
53	0x3f931a5a	1.1492417
54	0x3fae58d0	1.3620853
55	0x3fb86e1e	1.4408605
56	0x3fcf1e6b	1.6181158
57	0x3fb74709	1.4318553
58	0x3fad9d6c	1.3563666
59	0x3f82cd3c	1.0218883
60	0x3f7f2758	0.9966941
61	0x3f8ebdbc	1.1151652
62	0x3f8ad5b2	1.0846465
63	0x3fb767d7	1.4328564

sequential_10/batch_normalization_53/FusedBatchNormV31 f4 [64]
0	0xbea5067e	-0.32231516
1	0xbedac3ab	-0.42727408
2	0xbed67557	-0.41886398
3	0xbeae8218	-0.3408363
4	0xbefcd24a	-0.49379188
5	0xbf11776e	-0.5682286
6	0xbeef3a11	-0.4672399
7	0xbf2ec5e7	-0.68270725
8	0xbed345bc	-0.4126414
9	0xbef404e9	-0.47659996
10	0xbf056603	-0.5210878
11	0xbee8ad2e	-0.45444626
12	0xbeacafc0	-0.33727837
13	0xbf0d9352	-0.5530292
14	0xbef09fac	-0.4699682
15	0xbf19f38f	-0.60137266
16	0xbede93ee	-0.43472236
17	0xbea6b1d2	-0.3255754
18	0xbf24e1f5	-0.64407283
19	0xbf054c87	-0.52069896
20	0xbeffe8ca	-0.4998229
21	0xbef36572	-0.47538334
22	0xbed36bc8	-0.41293168
23	0xbefc2c84	-0.49252713
24	0xbeb66dc5	-0.35630623
25	0xbe2d76be	-0.16939828
26	0xbee3ef6d	-0.44518605
27	0xbec3b01a	-0.38220292
28	0xbe49bc54	-0.19700748
29	0xbebfd75a	-0.37468988
30	0xbf08ac04	-0.53387475
31	0xbefb19be	-0.49043077
32	0xbe857d8a	-0.2607234
33	0xbed78d39	-0.42099932
34	0xbedfb76f	-0.43694636
35	0xbee62ae6	-0.44954604
36	0xbe86277e	-0.26202005
37	0xbedbed06	-0.42954272
38	0xbf07b02e	-0.53003204
39	0xbf13800e	-0.5761727
40	0xbed9c050	-0.42529535
41	0xbf1163d1	-0.5679293
42	0xbe95e619	-0.29277113
43	0xbf147d1e	-0.58003414
44	0xbed98eed	-0.42491856
45	0xbf08b810	-0.5340586
46	0xbec56391	-0.38552526
47	0xbe8a908a	-0.270634
48	0xbf0348f5	-0.512832
49	0xbe8df65b	-0.27727017
50	0xbe9016e2	-0.28142458
51	0xbec372cf	-0.3817353
52	0xbeb4d778	-0.3532064
53	0xbee99c61	-0.4562712
54	0xbeb7e36f	-0.35915706
55	0xbeb60672	-0.35551792
56	0xbe4fdcb1	-0.20299031
57	0xbea77f60	-0.32714367
58	0xbead889d	-0.3389329
59	0xbf047783	-0.5174486
60	0xbef31841	-0.47479442
61	0xbedc5f4c	-0.43041456
62	0xbed773ec	-0.4208063
63	0xbe9ac94e	-0.30231708

sequential_10/dense_20/MatMul f4 [64, 384]
0	0x3d61921f	0.055070993
1	0xbdc40bd5	-0.09572569
2	0x3c361f46	0.011115855
3	0x3b3784a7	0.002800265
4	0xbd9a6bdc	-0.07540104
5	0x3d509636	0.050924502
6	0x3d6d144f	0.057880696
7	0x3d92c2f3	0.0716609
8	0x3d687919	0.056756113
9	0xbd6b8340	-0.057498217
10	0xbd8dbf16	-0.069212124
11	0xbd877c1c	-0.06615469
12	0xbdf52950	-0.1197077
13	0xbddbe2b6	-0.10736601
14	0x3bd80894	0.0065928195
15	0xbcf9d403	-0.030496603
16	0x3d494b9d	0.049144376
17	0x3d24bc93	0.0402189
18	0xbc50da98	-0.012747429
19	0xbc948dc5	-0.018134007
20	0x3d870013	0.06591811
21	0x3c66c88b	0.014085899
22	0x3dc72ea4	0.09725693
23	0x3d4fd2ed	0.050738264
24	0x3dfb4701	0.12269402
25	0x3dbd152e	0.09232555
26	0xbdce03c0	-0.10059309
27	0x3e07acd5	0.13249524
28	0x3d4f80f9	0.050660107
29	0xbd83949a	-0.06424828
30	0x3d909352	0.07059349
31	0xbd9b78ca	-0.07591398
32	0x3b16e58c	0.0023025004
33	0x3dc580e3	0.09643724
34	0x3d8f6030	0.07000768
35	0x3b80157f	0.0039088125
36	0xbdb3e4fa	-0.08783908
37	0x3c502737	0.012704662
38	0xbc8ad10d	-0.016945386
39	0xbd60a7f7	-0.054847684
40	0xbd2c5552	-0.042073555
41	0xbd84e45c	-0.064888686
42	0xbde31ac9	-0.11089093
43	0xbdb65d6f	-0.0890454
44	0xbd8465e3	-0.06464746
45	0x3cc29f31	0.023757549
46	0x3d3ceb5b	0.04612289
47	0xbd98ae00	-0.07455063
48	0x3db9ff42	0.0908189
49	0x3d9fee13	0.07809081
50	0xbd592afe	-0.053019516
51	0x3cf08fd4	0.029365458
52	0x3d451408	0.048114806
53	0x3b98a646	0.004658493
54	0xbbe3451e	-0.0069357296
55	0xbba9634f	-0.005169309
56	0xbdbd1a03	-0.09233477
57	0x3c40b830	0.011762664
58	0xbd5ba67e	-0.053625576
59	0x3dd63f7e	0.10461329
60	0x3d46cdf5	0.04853626
61	0x3db6c27f	0.08923816
62	0xbd4148e6	-0.047188662
63	0xbd8c9389	-0.068640776
64	0xbd02ba45	-0.03191592
65	0x3d901489	0.07035167
66	0x3b041766	0.0020155548
67	0xbde7c389	-0.11316592
68	0x3c985b0f	0.018598108
69	0xbdd290e6	-0.102815434
70	0xbda8b734	-0.08238068
71	0xbc990aa8	-0.01868184
72	0x3d8a722a	0.06760056
73	0x3de17271	0.11008156
74	0x3c7832d1	0.015148834
75	0xbde91c6d	-0.11382375
76	0xbdd69a7d	-0.10478685
77	0xbdc715e8	-0.09720975
78	0x3d619300	0.05507183
79	0x3dd63c04	0.10460666
80	0x3d932033	0.07183876
81	0xbbe7fc41	-0.0070796316
82	0x3c2b1c77	0.010443798
83	0xbd23c094	-0.03997858
84	0xbdb120be	-0.08648823
85	0xbd6cac34	-0.057781413
86	0xbc86714a	-0.016411442
87	0x3d8d0de9	0.06887419
88	0xba6e4fa6	-0.0009090848
89	0x3d5ba960	0.053628325
90	0xbc11714e	-0.008877112
91	0xbd8b2f63	-0.06796148
92	0x3d2249ce	0.039621167
93	0x3df8f781	0.121565826
94	0xbb618f6a	-0.0034417757
95	0xbd23b7c4	-0.039970174
96	0xbda539f7	-0.080676965
97	0xbd901ee1	-0.0703714
98	0xbd8e4dee	-0.06948458
99	0x3d5f6a7d	0.054544915
100	0xbdbc8a91	-0.09206117
101	0xbdbec2f8	-0.09314531
102	0x3cb625f1	0.022234889
103	0x3daad507	0.08341413
104	0xbd86e498	-0.065865695
105	0xbca4fd91	-0.020140441
106	0xbded1e03	-0.1157799
107	0xbd1aaf30	-0.037764728
108	0x3d199aab	0.03750102
109	0xbd087165	-0.033311266
110	0xbd31eb42	-0.04343725
111	0xbc44226a	-0.011971096
112	0x3d02b1be	0.03190779
113	0x3cdd8a6a	0.02704354
114	0x3dc1efd0	0.09469569
115	0xbc6d4628	-0.014482059
116	0x3da0c2f6	0.07849686
117	0x39cce4b6	0.00039080315
118	0xbcd09813	-0.02546314
119	0x39f2bab1	0.00046296933
120	0xbdab846e	-0.08374868
121	0xbcaa5500	-0.020792484
122	0xbd8d2331	-0.06891478
123	0xbddeb7ab	-0.10874876
124	0xbd53d2da	-0.051714756
125	0x3c42bada	0.011885369
126	0x3de13cda	0.10997935
127	0x3db20298	0.08691901
128	0x3b423e74	0.0029639276
129	0xbcac0578	-0.020998701
130	0x3d6694d6	0.056294285
131	0xbc2c6aaf	-0.010523482
132	0x3d59e922	0.05320085
133	0x3ba005ba	0.004883495
134	0x3d6b0dc2	0.057386167
135	0x3bc3d3db	0.005976183
136	0x3e050b24	0.12992531
137	0xbdb1c6f5	-0.08680526
138	0xbbb294f6	-0.0054498864
139	0x3d8b3ea0	0.06799054
140	0x3dd8e284	0.105900794
141	0xbdb93969	-0.09044153
142	0x3dd57a16	0.10423677
143	0x3cdd41f0	0.02700898
144	0xbd945051	-0.07241882
145	0x3d93fcb1	0.072259314
146	0x3d8385fc	0.0642204
147	0xbdccbb53	-0.09996667
148	0x3db6f801	0.08934022
149	0xbdc51fbf	-0.09625196
150	0xbc5a8095	-0.01333632
151	0x3d0eebb3	0.03489275
152	0xbdb0f93c	-0.08641288
153	0x3d99a9fb	0.07503124
154	0xbd51d0e8	-0.05122462
155	0xbcf38822	-0.029728
156	0xbd1b37d1	-0.037895028
157	0x3dcc50e3	0.099763654
158	0xbd8625eb	-0.06550201
159	0x3dde0ef2	0.10842694
160	0x3cb4e184	0.02208019
161	0xbdcf2bdd	-0.10115788
162	0x3d614715	0.05499943
163	0xbd943f62	-0.07238652
164	0xbd56d16e	-0.05244582
165	0x3d338848	0.04383114
166	0x3dd7d4d4	0.105386406
167	0xbd2eca1b	-0.04267321
168	0xbdc6929f	-0.096959345
169	0x3dec55a0	0.11539769
170	0x3d50d223	0.050981652
171	0x3cd1d8fe	0.025616165
172	0xbd1a3176	-0.037644826
173	0x3da21343	0.0791383
174	0xbdbd0718	-0.09229869
175	0x3db8a38c	0.09015569
176	0x3d79c8b2	0.060982414
177	0xbc22c6d5	-0.009935101
178	0xbdb0d876	-0.08635037
179	0x3cd0c3ad	0.02548393
180	0x3da07265	0.07834319
181	0xbc3f1507	-0.011662728
182	0xbdcec9d3	-0.10097089
183	0x3ddc61be	0.1076083
184	0x3dcafc40	0.09911394
185	0xbd471eea	-0.048613466
186	0xbdbc7e4f	-0.09203779
187	0x3c9026fd	0.017596716
188	0xbdf154d2	-0.11783756
189	0xbcec2797	-0.028827472
190	0x3dcd8cec	0.10036644
191	0x3c80cca9	0.01572259
192	0x3d49e388	0.049289256
193	0x3cbd2491	0.023088725
194	0x3dbf8147	0.093508296
195	0x3d807e00	0.062740326
196	0x3df75c8c	0.12078199
197	0xbd980957	-0.074236564
198	0xbcd08aed	-0.02545687
199	0xbdc8e978	-0.09810156
200	0xbd68da0b	-0.056848567
201	0xbd02215e	-0.031770103
202	0x3da23a6d	0.079213
203	0x3dc89686	0.09794335
204	0x3d9f51f4	0.07779303
205	0x3d3c0555	0.045903523
206	0xbdd91de0	-0.10601401
207	0xbdc2ae91	-0.09505952
208	0x3dceb6a4	0.1009343
209	0xbd7ae04e	-0.06124907
210	0x3ca8c93d	0.02060377
211	0x3cdd9650	0.027049214
212	0xbcb42ebd	-0.021994943
213	0x3a64777f	0.0008715316
214	0xbde3227b	-0.11090561
215	0x3b11a528	0.0022223685
216	0xbd963f6f	-0.07336318
217	0xbc909406	-0.017648708
218	0xbc1b2201	-0.009468556
219	0x3dbbc19b	0.09167787
220	0x3c734eac	0.0148503
221	0x3bb7179b	0.005587531
222	0xbddc011b	-0.10742398
223	0xbd5f8ac2	-0.05457569
224	0xbd073331	-0.033007804
225	0x3cc82ce6	0.024435472
226	0x3d3471e8	0.044053942
227	0x3cfa4349	0.030549662
228	0xbcc4c9f9	-0.02402209
229	0x3cda8838	0.026676282
230	0x3ddb8cfe	0.107202515
231	0xbd65ec36	-0.05613347
232	0x3db0a764	0.08625677
233	0x3db98b8c	0.090598196
234	0x3d19bae0	0.037531734
235	0x3d37d576	0.044881307
236	0x3de7b7ee	0.11314379
237	0x3dc805d6	0.09766738
238	0xbd35138e	-0.044208102
239	0xbd9345a1	-0.07191015
240	0xbdc84ce7	-0.09780293
241	0xbd180a53	-0.03711922
242	0xbdb4f117	-0.08835047
243	0xbd5bc9d6	-0.053659283
244	0x3dbb9a66	0.091603085
245	0xbce21b04	-0.027600773
246	0x3cf72492	0.030168805
247	0x3d7dcd17	0.061963167
248	0x3dcafe37	0.09911769
249	0x3dad6845	0.084671535
250	0xbc9e144d	-0.01929679
251	0xbd560c98	-0.052258104
252	0x3c9f8b30	0.01947555
253	0x3d3da85c	0.046303138
254	0xbdc69f7f	-0.0969839
255	0xbd44b881	-0.04802752

sequential_10/dense_21/MatMul f4 [32, 64]
0	0x3e0d8977	0.1382197
1	0xbe27a3c5	-0.16371067
2	0xbdf81cd9	-0.12114877
3	0xbdd160de	-0.10223554
4	0x3ddda25a	0.10821982
5	0x3bf23b9a	0.007392359
6	0x3d964248	0.07336861
7	0x3e2a7f4a	0.1665012
8	0x3e6a1a07	0.22861491
9	0xbe6e27d7	-0.23257385
10	0x3e469327	0.19392072
11	0xbdb0fa14	-0.086414486
12	0xbe53a095	-0.20666726
13	0xbe172a86	-0.14762315
14	0x3e294afd	0.16532512
15	0x3e0cfb9d	0.13767858
16	0xbd5eb458	-0.054371208
17	0xbde089d1	-0.109637864
18	0xbe830ef3	-0.25597343
19	0xbe01cad6	-0.12675032
20	0xbdb3dbdb	-0.087821685
21	0xbc3c3751	-0.011487798
22	0xbe240672	-0.16018084
23	0xbe28d675	-0.16488059
24	0xbdc8c711	-0.09803594
25	0x3e2fb151	0.17157485
26	0xbe785fc1	-0.24255277
27	0x3e27c461	0.16383506
28	0x3e4b34ba	0.19844332
29	0x3e798c51	0.24369933
30	0x3d89f19b	0.06735536
31	0xbdeb6680	-0.1149416
32	0xbe5f2c08	-0.2179414
33	0x3e196013	0.14978056
34	0x3e68a6cf	0.22719882
35	0xbd96990c	-0.0735341
36	0x3e518f05	0.20464714
37	0xbda95e67	-0.08269959
38	0xbb002796	-0.0019554845
39	0x3d7858ed	0.06063168
40	0x3e1c795d	0.15280671
41	0x3e6d5319	0.2317623
42	0x3e5f227e	0.21790501
43	0x3d74fb02	0.059809692
44	0xbd9d6b27	-0.07686453
45	0xbdd18b74	-0.10231677
46	0x3e61151d	0.2198071
47	0x3dd4ba04	0.10387042
48	0x3e25a68e	0.16176817
49	0xbe244254	-0.16040927
50	0xbe2e03e1	-0.16993667
51	0xbdb68f76	-0.08914082
52	0xbcfa306a	-0.030540664
53	0xbcec3e25	-0.028838227
54	0x3c226126	0.009910857
55	0x3e47e583	0.19521146
56	0xbe61c7c8	-0.22048867
57	0x3e65e8d8	0.22452104
58	0xbe17798c	-0.1479246
59	0xbd06ca73	-0.032907914
60	0xbe3e6109	-0.18591703
61	0x3e435dfd	0.19078822
62	0xbe6dbff5	-0.23217757
63	0x3e5c650f	0.21522926
64	0x3e39a106	0.18127832
65	0x3e6824dd	0.22670312
66	0x3db6c6a2	0.08924605
67	0xbce432ca	-0.02785625
68	0xbceaaa51	-0.028645666
69	0xbe164aeb	-0.14677016
70	0xbc36ea88	-0.011164315
71	0x3e714d63	0.23564677
72	0xbe1883d8	-0.14894044
73	0xbe509902	-0.20370868
74	0x3ddba116	0.10724084
75	0xbe0b9976	-0.1363276
76	0xbd69ff55	-0.05712827
77	0xbe05ea5a	-0.1307768
78	0xbe78f5a9	-0.24312462
79	0x3e490581	0.19631006
80	0xbdf9f01a	-0.12203999
81	0x3e032cfc	0.12810129
82	0xbdd91257	-0.10599201
83	0x3e458c42	0.19291785
84	0x3deb6192	0.114932194
85	0xbe601cd7	-0.21886002
86	0x3d278cfb	0.040905934
87	0x3e185b2c	0.1487853
88	0x3dab4b88	0.08364016
89	0xbe224207	-0.158455
90	0x3d8c3848	0.06846672
91	0x3e09f982	0.13474086
92	0xbe309b92	-0.17246845
93	0x3e2480b5	0.16064723
94	0xbd8ab7cf	-0.0677334
95	0x3e5e4ff3	0.21710186
96	0xbd95b937	-0.073107176
97	0xbe1f134a	-0.15534702
98	0xbc4622fe	-0.012093304
99	0x3e126309	0.14295591
100	0xbe0cb2c0	-0.13740063
101	0xbceb7e47	-0.028746737
102	0x3debed6d	0.11519895
103	0xbd21344f	-0.039356526
104	0xbd6ff2c3	-0.058581125
105	0xbcb47a83	-0.022031074
106	0xbcb1da83	-0.02171064
107	0xbe3b2c12	-0.1827853
108	0x3e3cc72d	0.18435355
109	0xbe67040d	-0.22560139
110	0x3cfba9c0	0.030720592
111	0xbdebfbc4	-0.1152263
112	0xbe5317d8	-0.20614564
113	0xbe095736	-0.13412175
114	0x3c0ec1d8	0.008713208
115	0x3e74479b	0.2385544
116	0x3d2c3c16	0.04204949
117	0xbe18a534	-0.1490677
118	0x3e0d330b	0.13789003
119	0xbd9d9e97	-0.07696264
120	0x3e019dc8	0.12657845
121	0xbdceaed8	-0.100919425
122	0x3e45918d	0.19293804
123	0x3e090bba	0.1338338
124	0x3e3dc074	0.18530446
125	0xbd255d20	-0.040372014
126	0xbcd97946	-0.026547085
127	0x3df45095	0.11929432
128	0x3e73899b	0.23782961
129	0xbe7742e8	-0.24146616
130	0xbd8dbb90	-0.0692054
131	0xbc9b48ba	-0.018955577
132	0xbb49b469	-0.00307777
133	0xbe17b31e	-0.14814422
134	0xbd0919a5	-0.033471722
135	0x3e43bd2f	0.19115137
136	0x3e66a298	0.22522962
137	0xbe3df3a1	-0.18549968
138	0x3e726d8a	0.23674598
139	0x3d7e6f08	0.062117606
140	0x3e037acd	0.12839814
141	0x3e1c77e2	0.15280107
142	0x3d24adf8	0.040204972
143	0xbce35621	-0.02775103
144	0x3d548857	0.051887836
145	0x3e31174f	0.17294048
146	0x3de19552	0.11014809
147	0x3e1ede7e	0.15514562
148	0xbe413599	-0.18868102
149	0xbcf42115	-0.029800931
150	0xbbe26178	-0.006908592
151	0xbdd6e39e	-0.10492633
152	0xbe7b507d	-0.24542423
153	0x3e6f8fa3	0.23394637
154	0xbdf200aa	-0.11816533
155	0xbc178141	-0.009247125
156	0x3e583058	0.21112192
157	0xbe49e89f	-0.19717644
158	0xbdb0ebb4	-0.08638707
159	0xbe7f51c9	-0.24933542
160	0xbe6b2a19	-0.22965278
161	0x3e08c37a	0.13355818
162	0xbb7414fa	-0.0037243948
163	0xbe8106d1	-0.25200513
164	0x3e1aab4d	0.15104409
165	0xbd7fedb6	-0.06248256
166	0x3e0b0f82	0.13580135
167	0xbd981651	-0.074261315
168	0x3d0fe1fc	0.035127625
169	0x3dd93f61	0.10607792
170	0x3e4c303f	0.1994028
171	0xbe1f49a8	-0.15555441
172	0xbe3e0b8a	-0.1855909
173	0xbd1b546f	-0.03792232
174	0x3e15eea9	0.14641823
175	0x3e02aad3	0.12760477
176	0xbd0802d8	-0.033205837
177	0xbd9d06cf	-0.07667314
178	0xbc4a70c5	-0.012355988
179	0x3d1ecc72	0.038769193
180	0x3bdbc049	0.006706272
181	0x3e314c8f	0.17314361
182	0xbdac6860	-0.084183455
183	0xbe3344db	-0.17506735
184	0xbd1b1940	-0.037865877
185	0xbe37eea8	-0.17962134
186	0x3e423088	0.18963826
187	0x3e24fa3e	0.16111085
188	0xbe0fa93e	-0.14029405
189	0x3e0a4209	0.13501753
190	0xbd5f37b6	-0.05449649
191	0x3c59f76f	0.013303622
192	0x3e086534	0.13319856
193	0xbe7404e0	-0.23829985
194	0x3df62ab9	0.120198674
195	0x3d49232d	0.049105812
196	0xbc17da3e	-0.009268342
197	0x3e435de4	0.19078785
198	0xbdc58369	-0.09644205
199	0xbe34d77a	-0.17660323
200	0x3e2f369e	0.17110679
201	0x3cbace5a	0.022803474
202	0xbc93b7f6	-0.018032055
203	0x3e80daae	0.2516684
204	0xbd1f1b24	-0.038844243
205	0xbe28d93c	-0.16489118
206	0x3da1b560	0.07895923
207	0x3dc9ca33	0.098530196
208	0xbdac381d	-0.0840914
209	0xbdc6db59	-0.09709806
210	0x3e1af7e3	0.15133624
211	0xbc98e27b	-0.018662682
212	0xbd223bae	-0.039607696
213	0xbdea1200	-0.114292145
214	0x3d4d1a88	0.05007413
215	0xbe1a5718	-0.15072286
216	0xbd8eb0be	-0.06967305
217	0xbdb44289	-0.08801753
218	0xbde82007	-0.11334234
219	0x3e58fdd8	0.21190584
220	0x3bc084ef	0.005875222
221	0x3ddbf662	0.10740353
222	0xbc791a2f	-0.015203997
223	0xbe72d02d	-0.23712225
224	0x3e64a669	0.22329105
225	0xbe2a3bd6	-0.16624388
226	0x3e38a123	0.18030219
227	0xbe70e41e	-0.2352452
228	0xbd8fa4cd	-0.07013855
229	0xbcb12a5f	-0.02162665
230	0xbda8058d	-0.08204184
231	0xbe0ac267	-0.13550721
232	0xbe5a2788	-0.21304142
233	0xbde77abf	-0.11302709
234	0xbe0fada5	-0.14031084
235	0x3e150c2e	0.14555427
236	0x3daa65be	0.08320187
237	0xbdb16feb	-0.08663925
238	0xbe60d06f	-0.21954511
239	0x3dfef6cc	0.124494165
240	0xbe126082	-0.14294627
241	0xbe03451f	-0.12819336
242	0xbe1f5df2	-0.15563181
243	0x3d68640b	0.056736033
244	0x3e1c8ac0	0.15287304
245	0x3d9eb431	0.077492125
246	0xbc5f423f	-0.013626634
247	0xbe5bc9cf	-0.21463703
248	0xbe213b5e	-0.15745303
249	0x3e75171c	0.23934597
250	0xbd8298c4	-0.06376794
251	0x3e0578e3	0.13034396
252	0x3d98c4eb	0.07459434
253	0xbd9f2c5a	-0.07772131
254	0x3e296172	0.16541079
255	0xbd5968ad	-0.053078342

sequential_10/dense_22/MatMul f4 [2, 32]
0	0x3e7c8c15	0.24662812
1	0x3eb7676c	0.35821092
2	0xbe220b6a	-0.15824667
3	0x3e852e59	0.26011923
4	0x3ecd1c75	0.40060773
5	0x3d867375	0.065649904
6	0x3cf74769	0.030185418
7	0xbd0d8d71	-0.034558717
8	0x3ed5095a	0.41608697
9	0x3e77ceb9	0.24199952
10	0xbe83c151	-0.25733426
11	0xbeb4f506	-0.35343188
12	0x3e9be2e7	0.3044655
13	0xbdf48e17	-0.11941164
14	0xbe91ef3e	-0.2850284
15	0xbe935d81	-0.28782275
16	0xbe9a2673	-0.3010746
17	0xbcad2758	-0.021136925
18	0xbe98d2a2	-0.298482
19	0xbe6a210d	-0.2286417
20	0x3d8c7b6e	0.0685948
21	0xbd8aac46	-0.0677114
22	0xbaf97f77	-0.001903518
23	0x3e5003ba	0.20313922
24	0xbe878260	-0.26466656
25	0xbec327c9	-0.3811629
26	0xbe994980	-0.2993889
27	0xbe561ab2	-0.20908621
28	0x3c7f8eb4	0.015597988
29	0xbce5b2cb	-0.028039357
30	0x3d57a2a5	0.052645344
31	0xbe5c0fb0	-0.2149036
32	0x3eafce88	0.34337258
33	0xbe9f1854	-0.31073248
34	0x3e624d82	0.2209988
35	0x3e99c46f	0.3003268
36	0x3e66b10a	0.22528473
37	0x3deca26c	0.11554417
38	0x3dd8704c	0.10568294
39	0xbea754dd	-0.32681933
40	0xbecc1e47	-0.3986685
41	0x3e8b198c	0.27167928
42	0x3e1a5cb4	0.15074426
43	0x3dd6428f	0.10461914
44	0x3ec6bc1c	0.3881539
45	0x3e920fd3	0.28527698
46	0xbc9e3432	-0.019311998
47	0x3d74ffd4	0.05981429
48	0xbe3d6e96	-0.18499216
49	0xbdfe605e	-0.12420724
50	0x3c3317d1	0.010930971
51	0xbde279f2	-0.110584155
52	0xbe87f6ab	-0.2655538
53	0xbe388042	-0.18017676
54	0x3e3e5f7d	0.18591113
55	0xbe1253da	-0.142898
56	0xbe8c5b68	-0.27413487
57	0x3e3138d2	0.17306831
58	0xbecabc3d	-0.3959674
59	0xbe0b49be	-0.13602349
60	0xbec5fd90	-0.38670015
61	0x3e0654ca	0.13118282
62	0x3e8452d7	0.25844452
63	0x3ea57b91	0.32320836
