models/compressed_MFCC/model_CNN.tflite (tflite, 672520 bytes, 12 tensors)

sequential_4/conv2d/BiasAdd/ReadVariableOp f4 [32]
000000 9b 5e dc 3b 26 a7 1b bc 34 5a 00 bd 18 c5 23 bc
       0.006725145 -0.0095003005 -0.031336024 -0.009995721
000010 04 fb 04 bd a6 46 8d 3b 6a a4 1f ba 9e 5b 01 3c
       -0.03246595 0.0043114005 -0.0006089868 0.007895378
000020 47 41 31 bc f9 e0 8d 3b 7b 95 22 bc 65 c3 ab 3c
       -0.010818786 0.0043297973 -0.009923334 0.020967195
000030 25 19 e2 3b 84 71 74 bc a8 5d c2 bc 15 ea 7e bb
       0.00689997 -0.014919642 -0.0237263 -0.0038896848
000040 42 94 d0 3c bf 4a 03 bb 9e 91 9c 3c dd 8c a1 bb
       0.02546132 -0.0020033566 0.019112404 -0.0049301223
000050 db 3a c5 3b 5f c9 0e 3c 7a 09 9f 3c 78 c1 82 bc
       0.006018979 0.008715003 0.019413698 -0.015961394
000060 d1 53 02 3c 0b eb 9e bb a4 7d ac b9 d2 bb 30 3c
       0.007954554 -0.0048497966 -0.00032900006 0.010786967
000070 42 57 da 3c a1 4e 17 3c 05 a7 12 bc 13 e3 1e 3c
       0.026652936 0.009235055 -0.008950953 0.009697693

sequential_4/conv2d_1/BiasAdd/ReadVariableOp f4 [64]
000000 e7 b2 1e bc 22 eb 35 3b 50 7f 9d bb 19 40 d8 bb
       -0.009686208 0.0027758558 -0.0048064366 -0.006599438
000010 72 78 9d bc ff 59 e5 3b 8b 9d 5d bc b0 dc 26 ba
       -0.019222472 0.0069992538 -0.013526331 -0.00063652825
000020 ee e0 38 bc 48 7c 2b 3c 57 24 a7 3a 3a 36 81 3c
       -0.011284096 0.010466643 0.0012751919 0.015772928
000030 a4 8c 18 bc a7 b6 36 3c 23 f5 42 3b 07 2d 64 3b
       -0.009310875 0.011151946 0.0029748164 0.0034816877
000040 40 ce 05 bb fe 09 13 bb 34 11 43 3c 86 3b 37 3a
       -0.0020417124 -0.0022436376 0.011905957 0.00069897657
000050 b7 92 85 3b 8f 7f 31 3c 4c 63 aa 3c 20 56 00 ba
       0.0040763277 0.010833635 0.020799302 -0.0004895646
000060 03 5c b0 bc f9 aa a6 bc 60 8d 58 3b 82 45 e1 bb
       -0.02152825 -0.020345198 0.003304325 -0.006874741
000070 83 35 0b bc c9 69 b1 bb b0 8c 78 bb 2c 54 be 3b
       -0.008496645 -0.005414222 -0.0037925653 0.005808374
000080 84 11 a5 bc a1 b0 9a b9 5d 94 9b bb af 23 07 bb
       -0.020149954 -0.00029504768 -0.004747911 -0.0020620634
000090 1e eb 0f 3c fa 3f 83 3b 4a c5 a2 3a 5f 61 1a bb
       0.008784084 0.0040054293 0.0012418416 -0.0023556573
0000a0 69 ba 38 3c ba d7 d3 bb aa 1f 57 bc bf a7 f0 ba
       0.011274912 -0.0064649256 -0.013130108 -0.0018360539
0000b0 38 9d f1 b9 6c ed bb 3b bc b3 a9 bb 41 80 9f bb
       -0.0004608424 0.00573509 -0.0051788967 -0.004867584
0000c0 5e 2c 36 3b f3 e0 01 3c 4a 2a 81 bb 89 9d 80 bc
       0.002779744 0.007927167 -0.003941809 -0.015700119
0000d0 76 75 a7 3c dc 84 96 bc 5c 6e 07 bb b7 1d 4e 3c
       0.020441752 -0.0183739 -0.0020665145 0.012580327
0000e0 99 2a 33 bc bc d2 24 39 f9 9b 2e b9 e1 bd de 3b
       -0.010935449 0.00015718763 -0.00016652037 0.0067975377
0000f0 f7 2f 78 3c 1b c3 5a 3b 4b bd c1 bc 44 34 88 bc
       0.015148154 0.0033380452 -0.023649832 -0.016626485

sequential_4/conv2d/Conv2D f4 [32, 3, 3, 1]
000000 b1 db 81 3d 4a 8f 1a 3e bb 22 f1 3b 6f be 46 3d
       0.06340731 0.15093723 0.0073588765 0.048521455
000010 df e3 75 3c 50 55 6b 3d 65 1a ec bd 75 5e a6 3c
       0.015007942 0.057454407 -0.11528472 0.020308712
000020 73 3a 86 bd 4e 54 f6 bd c9 51 da bd 08 84 68 bd
       -0.06554117 -0.120277986 -0.106601305 -0.05676654
000030 6e 9e 94 3d 59 85 f8 bd b3 62 13 be e1 ed 3b bb
       0.072567806 -0.12134809 -0.1439312 -0.0028675722
000040 24 f3 82 3d 6e f3 1a bc 08 a4 79 bc aa 57 99 3d
       0.06394032 -0.009457452 -0.015236862 0.07487424
000050 20 02 32 bd aa fc 68 3c 09 2a 06 3d 51 22 f0 3d
       -0.043459058 0.014220396 0.03275493 0.11725295
000060 19 04 d9 3d 64 de 95 bc c8 93 d7 3c 4a 5a 83 3b
       0.10596485 -0.01829452 0.026315585 0.004008566
000070 54 77 a9 bc 2b f1 98 bb e9 e3 b2 3d b8 96 03 3e
       -0.020686783 -0.0046674213 0.08734877 0.12850463
000080 a2 54 ab 3d 19 9c c5 3d e8 6c dd bd b3 cb fd bd
       0.08365752 0.09648914 -0.10811788 -0.12392368
000090 fb b0 01 3e f9 5a 64 bb 97 16 8a bd 61 1e d1 3d
       0.12665169 -0.0034844263 -0.0674259 0.102108724
0000a0 c4 6b 62 bd 54 16 8e 3d 02 69 8c 3d 72 4f 83 3d
       -0.055278555 0.069378525 0.06855966 0.06411637
0000b0 2b df c3 3d 4b 15 f0 bc 99 59 54 bd 68 d4 0d be
       0.0956405 -0.029307028 -0.05184326 -0.13850558
0000c0 cd 42 39 3b de ad 36 bc c9 e7 80 3d f3 ff 8b bd
       0.0028268576 -0.011149852 0.062942095 -0.06835928
0000d0 58 ec d0 bb f8 70 07 be 21 a0 b7 3c f3 72 b1 bd
       -0.0063758306 -0.13226688 0.022415223 -0.08664503
0000e0 b0 65 d5 3d 74 e0 a3 3d 2f f1 03 3e f0 2d 81 3d
       0.10419786 0.080017954 0.12884973 0.0630759
0000f0 7a f1 82 3c 1e fb 2c bd e8 03 64 3d a8 f8 59 bd
       0.015984286 -0.04223167 0.055667788 -0.053215653
000100 dd 20 f8 3d d1 b3 ef bd 4a c0 bd 3c fd b5 a3 3d
       0.12115643 -0.11704219 0.02316298 0.07993696
000110 92 50 1a 3c 0a fc 87 b9 25 77 80 3d 50 11 28 3d
       0.0094186235 -0.0002593699 0.06272725 0.041032135
000120 c8 ab 04 3e ea 73 ea bb 4d 05 2d bc bb 44 ed 3d
       0.12956154 -0.0071549313 -0.010560346 0.11585375
000130 3f d2 80 3c dc 17 bd 3d c8 70 6f bd 5c e1 a1 bd
       0.015725253 0.092330664 -0.058457166 -0.07904312
000140 69 3a fa bd 40 ee 07 be c8 14 b7 bd 8e ab fd bd
       -0.12218172 -0.13274479 -0.089395106 -0.12386237
000150 60 ad d1 3d 58 76 d1 bd 30 d3 0f bd bb 6f b0 3d
       0.10238147 -0.102276504 -0.035113513 0.08615061
000160 57 13 c6 3d ff ac 0c 3e 42 bc 21 3d d6 da c0 3d
       0.096716575 0.13737868 0.039486177 0.0941674
000170 0a 11 13 bc ac 16 80 bd 25 1a 0c bd c0 9f 65 bc
       -0.00897623 -0.06254324 -0.03420462 -0.014015138
000180 bf 54 a2 3d 33 2b 05 3e c9 cb 6c bd cb b2 e0 3c
       0.0792632 0.1300476 -0.057811532 0.027429005
000190 b7 78 9f 3d c2 56 5c bd 08 98 d0 3d 50 ad 07 be
       0.077866964 -0.053793676 0.10185248 -0.13249707
0001a0 08 28 4a bd ec 05 dc 3d ef 9c 9a bd 03 b8 7a bd
       -0.049354583 0.10743317 -0.07549464 -0.061210644
0001b0 4c 6a 7e bd 39 a9 39 3d d2 3f 08 be 22 79 d9 3c
       -0.06211309 0.0453274 -0.13305596 0.026547018
0001c0 62 bd 17 3d b4 1d a1 3c 37 1e b4 3d 48 fd 7a 3d
       0.037045844 0.019667484 0.087948255 0.061276704
0001d0 00 8c cb 36 2e 0e c4 bd cf 61 c6 bb ec 62 f0 3c
       6.0661696e-06 -0.09573017 -0.00605414 0.029344045
0001e0 d3 fa f0 3d 93 3d 07 be fd f1 34 3d 6b 38 0e 3e
       0.11766591 -0.13207082 0.04417609 0.13888709
0001f0 1d 6e c5 3c e3 32 ab bd 59 20 ee 3c 5f 3b 1d 3d
       0.024100358 -0.08359315 0.029068159 0.0383867
000200 8b ed 3a bd 14 ec 4c 3c 41 bf c0 3c c8 ac c3 bd
       -0.045636695 0.012507457 0.023528697 -0.0955444
000210 98 bb cb 3c 04 5e 29 3a bf 5a b0 bd d2 0e df bd
       0.024869725 0.0006460848 -0.086110584 -0.108914986
000220 a1 30 0d 3d e3 21 ac 3d 62 84 7b bd b8 0c e1 3d
       0.034470204 0.08404901 -0.061405547 0.10988754
000230 8a 1d c4 3c 0c e1 02 bd 81 5a 96 bd 71 dc 22 3d
       0.023939867 -0.031952903 -0.07341481 0.03976101
000240 dc 96 1c be 06 7b 6e 3b e6 f3 c3 3d 24 18 6f 3d
       -0.15291923 0.0036389246 0.09568004 0.05837263
000250 d9 18 f8 bd 49 6d d3 bd 2c 09 fb bd 2d cd 9c 3d
       -0.12114114 -0.10323579 -0.12257609 0.07656322
000260 d0 35 4f bb be 98 98 3d 9d 06 cf 3d fd 38 02 3e
       -0.0031617768 0.07451008 0.10108683 0.12717052
000270 b9 c4 dd bd bd a0 dc 3d ae f3 b9 3c 44 fd db 3d
       -0.108285375 0.10772846 0.022699203 0.10741666
000280 ba 26 cf 3d e5 17 76 3d 1e 3d 0a be a5 e9 82 bc
       0.101148084 0.06008138 -0.13499877 -0.015980551
000290 56 c2 ca 3c 0c 0e 6a 3d 7e 6f 8f 3d 55 80 6d bc
       0.02475087 0.057142302 0.07003687 -0.014495929
0002a0 1d 49 12 3e 43 12 e9 3d 05 4d ab bd e7 12 88 3d
       0.14285703 0.11380436 -0.083643 0.0664423
0002b0 16 03 ce 3d 62 5a f1 3d e9 1b af 3d 4e 4e 45 bd
       0.10059182 0.11784817 0.08550245 -0.04817038
0002c0 29 69 a6 bd f2 0a e0 bd 11 ad 0d 3d 96 0f 40 3d
       -0.081255265 -0.10939588 0.034588877 0.046889864
0002d0 5a 5b b1 3d e6 17 1c bc c2 18 0b 3e f9 d2 00 be
       0.08660002 -0.009527182 0.13583663 -0.1258048
0002e0 d4 31 69 bd 7c e1 bb bd ea 06 f6 bc 93 20 e3 bd
       -0.056932285 -0.09173867 -0.030032594 -0.110901974
0002f0 ed b3 e7 bd d6 da 2a 3d 65 95 dc bc e3 4f 50 3d
       -0.11313615 0.041712604 -0.026926706 0.050857436
000300 93 bf e7 3d 6e a5 f1 3c d0 05 c4 bd 81 5c 6a bd
       0.11315837 0.029497828 -0.09571421 -0.057217125
000310 32 b5 19 3e 01 b5 21 3e e2 7e 17 3d 48 15 81 3d
       0.15010527 0.15791704 0.03698624 0.06302887
000320 b4 8a c7 3d 50 f8 5c 3d a6 74 b7 3d 60 e4 0d be
       0.097432524 0.053947747 0.08957796 -0.1385665
000330 73 a3 53 bd fc 8e 0f be 79 07 06 be 2d 13 84 bd
       -0.05166955 -0.14019388 -0.13088788 -0.0644897
000340 6b 55 a1 bd 29 f3 8e bd ab e7 1e bd d3 2c 18 3d
       -0.0787762 -0.06979973 -0.038795155 0.037152123
000350 f1 06 23 bd 53 d1 a6 3d c2 42 10 3c 89 7b 9c bd
       -0.03980154 0.08145394 0.008804979 -0.0764075
000360 15 d7 a9 3d 30 79 17 3d 85 8c 2d bd f6 19 da bd
       0.08292977 0.036980808 -0.042370338 -0.10649483
000370 29 01 31 bd 91 e9 b8 bd 7b a7 cf 3d 32 19 ca bd
       -0.043213997 -0.09028924 0.10139366 -0.09868087
000380 27 73 e5 bc 98 3d ad 3d 0e 10 d0 3d be ca 12 be
       -0.02800901 0.08459014 0.10159312 -0.14335153
000390 2a 85 69 3d 78 a7 47 bd 08 3a 83 3d 68 fb d0 bd
       0.05701176 -0.048743695 0.06407553 -0.10204202
0003a0 13 67 9c 3d 7e e1 e1 bc f1 e4 c2 3c dc 76 1d 3e
       0.07636847 -0.027573343 0.023790808 0.15377373
0003b0 18 21 11 3d cf f7 72 bd 36 5e 40 3d 67 9b a8 3d
       0.03543195 -0.05931836 0.046964847 0.08232766
0003c0 58 8c 33 3d 5d ca de 3d 4c ed af 3d dd 33 fc bc
       0.043835014 0.108784415 0.08590183 -0.03078645
0003d0 3f 79 ee 3d 6e 27 81 3d 49 66 02 bc 14 47 08 bc
       0.116442196 0.06306349 -0.007958957 -0.008317728
0003e0 6d 91 82 bd ae b4 04 3d 1f 5c 86 3d b0 1e 8e bd
       -0.06375394 0.032398872 0.065605395 -0.06939447
0003f0 fd d6 a9 3d 2d 8b 8a bd 57 ce 9a 3d 84 21 82 bc
       0.08292959 -0.06764827 0.075588875 -0.015885122

sequential_4/conv2d_1/Conv2D f4 [64, 3, 3, 32]
000000 fb da e9 3b 1a 7f 0e bd a4 c8 8e bd 73 75 96 3d
       0.0071367 -0.034789182 -0.06971863 0.073466204
000010 4c 22 84 bd 92 63 17 3d b7 66 09 bd 14 de 66 bd
       -0.06451854 0.036960192 -0.033545222 -0.056364134
000020 35 6d 7c bd 17 c8 f6 38 e0 49 7f 3d 3a 3f 72 bd
       -0.061627585 0.00011767464 0.062326312 -0.05914233
000030 c5 09 a9 3d 92 fd 8d bd ac 18 96 3d e5 a0 94 bd
       0.082538165 -0.0693313 0.073289245 -0.07257251
000040 56 90 4a bd 9a c5 a6 3d 82 fd bd 3d ce 80 7d 3d
       -0.049454056 0.08143158 0.092768684 0.061890416
000050 0b 6b e1 ba 5c 65 04 bd 21 a7 9e bd e7 b6 a6 3d
       -0.0017198039 -0.032323226 -0.07746721 0.081403546
000060 58 f6 05 3c 19 13 d3 bc 04 bc 44 3d 64 b0 32 3c
       0.008176409 -0.025765942 0.04803087 0.010906313
000070 ca 1c 51 3d 4d af 13 3d fa 13 67 3d 64 87 98 ba
       0.051052846 0.03605585 0.056415536 -0.0011637029
000080 05 2b a0 bd f0 d6 f2 3c e9 4a 29 bd e3 37 a4 3d
       -0.07820705 0.029643506 -0.041331206 0.08018472
000090 0d 3c bf 3d 16 90 27 bd 7d 7a 67 bc 9f 5e c2 bd
       0.09337626 -0.040908895 -0.014128325 -0.09490704
0000a0 6f 6f 94 3d 2e 7c 18 bd 04 c0 b3 3c 1b 4d 07 3d
       0.07247817 -0.037227802 0.021942146 0.033032518
0000b0 fa fc 98 bd 67 75 24 bd c8 49 93 3c fe 5d a6 3c
       -0.074701265 -0.040151026 0.017979518 0.02030849
0000c0 ea 06 53 3d 4a 11 94 bd 84 91 ba 3b b3 7b 41 3d
       0.051520266 -0.0722986 0.0056936163 0.04723711
0000d0 a1 13 58 3d da 15 65 3d e2 80 7b 3c 0d da b2 3c
       0.052753095 0.055929042 0.015350552 0.02183249
0000e0 53 6b 9a bd b7 88 01 bd 3b 1b bb bc ad 33 e0 bb
       -0.07540002 -0.031624522 -0.022840133 -0.0068420977
0000f0 f5 b6 dc bb 5e 54 28 bd 67 84 65 bd 46 60 39 3d
       -0.0067356774 -0.041096084 -0.05603447 0.04525783
000100 b4 93 dd bc a5 21 8c bc 14 69 71 3d e1 6b a2 3d
       -0.02704797 -0.017105887 0.0589381 0.079307325
000110 c4 3d 85 bd 4d b8 8a bd a3 0c 36 bd 17 06 61 bc
       -0.065059215 -0.06773434 -0.044445645 -0.013734362
000120 1b f5 6d 3d 7b 2d 5e 3d fb f5 37 bd c3 75 9d bd
       0.05809508 0.054242592 -0.04491232 -0.07688477
000130 d3 73 9d bc 33 62 31 bc df 95 62 3d b1 4c 09 3d
       -0.019220268 -0.010826635 0.05531871 0.033520404
000140 7d fa 9a 3c b7 4a 03 3c 96 96 8b 3d 04 bc 6c bd
       0.01891827 0.008013419 0.06815831 -0.057796493
000150 f1 32 e3 3c 83 d9 31 bd 79 46 39 3c d4 15 56 bc
       0.027734252 -0.043420326 0.011308306 -0.013066728
000160 b1 d5 5e 3d 4b 95 19 bd ea ac 1e 3d 88 5a 4a 3c
       0.05440301 -0.037495892 0.038739122 0.012350686
000170 06 79 a9 bc 7b 78 51 3d 28 70 5b bd 85 66 dc 3a
       -0.020687591 0.05114029 -0.053573757 0.0016815221
000180 28 35 a2 3d 8a 32 4d bd c0 7d 03 3d c0 8b 79 bd
       0.07920295 -0.050097026 0.032102346 -0.06092429
000190 2c 9e 80 3d c7 7a 2c bc f4 75 e9 bc 07 29 c1 3c
       0.06280169 -0.010527319 -0.028498627 0.023579134
0001a0 67 a5 5d 3d 1c 3a 33 bd d0 a7 52 bd fa 5c 80 3d
       0.054112818 -0.04375659 -0.05142957 0.06267734
0001b0 d9 a4 33 3c 04 80 70 bc 04 99 60 3d 18 09 7f bc
       0.010964596 -0.014678959 0.054833427 -0.015566133
0001c0 3f 03 1e 3d 4f 64 d4 3c b9 0c 42 bb ea 18 be 3b
       0.038577314 0.025926737 -0.0029609634 0.00580131
0001d0 32 3c 86 bd 77 4f 89 bd 4e 7a 28 3d c0 6d 1d bd
       -0.0655445 -0.0670461 0.041132264 -0.038434744
0001e0 47 7c 72 3d 23 c1 84 bd 5b 9e 7f 3c 7e 8f 63 39
       0.05920055 -0.064821504 0.01560172 0.00021701862
0001f0 97 63 b2 3b 73 d6 33 bc 60 32 0e 3d 43 c2 2f 3d
       0.005444001 -0.010976422 0.03471601 0.04290987
000200 73 d0 44 3c 13 a5 88 bb 7d c0 3e bd ae 12 81 bd
       0.012012589 -0.004170069 -0.04657029 -0.06302391
000210 4f 7f b3 3d 33 06 bf bd 19 b4 86 3d 22 fb 4b bd
       0.087645166 -0.09327354 0.0657732 -0.049800046
000220 c3 c8 33 3d b0 39 4a bd 59 ea 8b bd 5c 21 36 3b
       0.043892633 -0.04937142 -0.06831808 0.002779088
000230 72 31 d9 3b 66 94 94 bd 14 66 08 3d 06 9a 81 bd
       0.006628209 -0.07254867 0.033300474 -0.06328206
000240 d9 5f 49 3d 01 50 55 bd 13 76 15 bd b4 9e b9 ba
       0.049163673 -0.05207825 -0.036489557 -0.0014161677
000250 93 79 af bc ff e0 52 3d 0b 6e 4a 3d 44 32 a8 bb
       -0.021420276 0.051484104 0.04942135 -0.0051329453
000260 da 1d 93 bd 5c 34 ac bd a0 7d 90 3c e4 4c 1c 3d
       -0.07183428 -0.08408424 0.017638028 0.038159266
000270 95 f0 70 3d 4c ef 52 bd a4 87 0d 3d f6 e3 8a bd
       0.058823187 -0.051497743 0.034553185 -0.06781761
000280 27 ba 30 bc 5f b6 30 3d cb 43 98 3c bb 55 0e bd
       -0.01078657 0.043142673 0.018587014 -0.034749728
000290 27 fb 6c bd c9 f2 03 bd 2b 0e b3 bd a1 c5 d8 3c
       -0.057856705 -0.03221396 -0.08742937 0.026461424
0002a0 60 65 0d 3d a9 06 a4 bd 46 dd 33 bc 3c 27 36 3b
       0.034520507 -0.08009083 -0.010978049 0.0027794382
0002b0 0d 94 2a 3c 08 08 ac 3d c4 62 03 3d 43 fb b1 3d
       0.010411275 0.08399969 0.032076612 0.086905025
0002c0 07 89 8d 3d 28 67 82 3d 37 a4 61 3d 4a a9 d0 3c
       0.069109015 0.06367332 0.055088248 0.025471348
0002d0 6a 36 26 3c f8 31 1e 3c c7 81 2a bc 91 0b 50 3c
       0.010144809 0.009655468 -0.010406918 0.01269807
0002e0 77 66 8e bd 4f 47 8b bc 37 27 09 bd 43 67 2f bd
       -0.06953137 -0.017001776 -0.033484664 -0.042823087
0002f0 ff c2 a8 bd a4 19 99 bc 2f df de ba ba 9d 97 bd
       -0.082403176 -0.018688984 -0.001700377 -0.07403131
000300 f0 48 6e 3c 89 0d 39 bd 0e 79 2f 3c a1 31 86 bd
       0.014543757 -0.045178924 0.010710014 -0.06552435
000310 61 83 6f bc ee dd 13 b9 14 fb 21 3d b1 e2 a7 3c
       -0.0146187255 -0.00014101688 0.039546087 0.020493837
000320 9e 3e 4b 3d 36 d4 8a bd f0 11 8e 3d c7 7d 66 bd
       0.049620263 -0.06778757 0.06937015 -0.056272294
000330 d8 b6 e4 3d 5f 34 a5 3c 65 73 65 bd 61 e7 98 3b
       0.11167687 0.020166574 -0.056018252 0.0046662544
000340 67 0c 2b bd 8b 33 9f 3d 07 0b b9 bc 8e 9d 90 3d
       -0.041759875 0.07773503 -0.022588266 0.07061301
000350 a2 53 98 bd bb 3f 56 3d b3 7a 2d bd d3 90 a6 bd
       -0.07437827 0.05230687 -0.042353343 -0.08133092
000360 c4 17 32 bd ad a0 7d bd ad 3b f4 3c a9 ae 28 bc
       -0.043479696 -0.06192081 0.029813612 -0.0102955485
000370 4f 3a ac 3c df c9 2a bc fb 75 85 bd 3a d6 8a 3d
       0.021023897 -0.010424106 -0.065166436 0.06779142
000380 8e b9 36 3d 76 39 1a 3d 2b 99 cc bb 54 5c bf 3d
       0.044610552 0.037652455 -0.006243845 0.09343782
000390 96 cc cb 3d cf e8 60 3d b9 87 1d bd 52 cc 92 bd
       0.09951131 0.054909524 -0.038459513 -0.07167877
0003a0 70 56 7d 3d b4 23 1d bc f1 25 1b 3d a7 f2 4a bd
       0.06185001 -0.009591032 0.03787798 -0.049547818
0003b0 38 c5 4a bd 4a 8e f1 3a 68 0c 0d 3d e0 78 b9 bd
       -0.04950449 0.0018429246 0.03443566 -0.09056258
0003c0 38 31 9b 3c 40 dc 6a 3d 71 f3 e5 3b 53 4b 3e 3d
       0.018944368 0.057338953 0.007017546 0.046458554
0003d0 0b 19 51 3c 6c f4 7f 3d f9 0d 7c 3d b3 c8 62 3d
       0.012762318 0.06248896 0.061536763 0.055367183
0003e0 f3 da 6f 3b a8 7e d5 bc e8 cd 57 bd d2 bc d7 3b
       0.003659901 -0.026061371 -0.052686602 0.0065837884
0003f0 3a 9c 7e bd 9f ab 80 3d 9d 69 34 39 39 1e b1 bd
       -0.062160708 0.06282734 0.00017205482 -0.08648343

sequential_4/dense_9/BiasAdd/ReadVariableOp f4 [2]
000000 13 4a 79 bb 1d 4a 79 3b
       -0.0038038536 0.003803856

sequential_4/dense_8/BiasAdd/ReadVariableOp f4 [64]
000000 ee a9 13 3b 76 25 9a 3b d0 60 2a ba ee 1a c4 bb
       0.0022531706 0.0047041727 -0.00064994115 -0.0059846556
000010 e6 e6 28 bc 41 66 8c bb 41 cf 87 bb 99 fa e1 3b
       -0.010308957 -0.0042846506 -0.0041445796 0.0068963286
000020 b7 dd 4d ba 8f 45 ab bb 1f 64 94 bb c4 9c f8 bb
       -0.00078531675 -0.005226798 -0.004528537 -0.0075870473
000030 87 12 cc bb 49 19 35 bb a4 f5 ab bb ce c5 86 bb
       -0.0062277946 -0.002763348 -0.0052477885 -0.0041129356
000040 96 00 49 ba be 5b e6 bb 6b 85 a4 bb 14 02 03 bc
       -0.0007667629 -0.0070299795 -0.0050207875 -0.007996101
000050 a5 a3 18 bc 9a ef 99 bb 50 b4 15 bc a2 11 72 bb
       -0.00931636 -0.004697752 -0.009137228 -0.003693678
000060 04 a0 89 bb 7e 28 44 3b 6f d9 6a bb 6b d8 f2 bb
       -0.0041999836 0.0029931362 -0.0035835167 -0.007411053
000070 a6 45 40 bc 8a f3 da ba 3e e7 a7 bb d1 2f df bb
       -0.0117353555 -0.001670466 -0.0051240018 -0.00681112
000080 a3 ff fc bb 9d f5 80 bb 4c 8a d2 bb ae 9e a6 bb
       -0.007720904 -0.0039355294 -0.0064251777 -0.005084834
000090 1c ea 54 bb b7 14 ad bb 61 4f 0f bc 9b b7 97 bb
       -0.0032488173 -0.0052820104 -0.008746953 -0.004630042
0000a0 1c 91 0f bb d5 00 b7 bb a8 4b dc bb a3 df 92 bb
       -0.002190656 -0.005584816 -0.006722886 -0.004482226
0000b0 a9 a0 d8 39 5e 03 a9 bb dc f6 97 3a ac 21 9e bb
       0.00041318432 -0.005157872 0.0011593956 -0.0048257913
0000c0 1c f2 94 bb f9 da f4 bb b1 b5 b3 bb f7 80 87 bb
       -0.0045454632 -0.0074723926 -0.005484306 -0.004135247
0000d0 f7 9c cf bb 10 fc 66 b8 a2 8e b9 bb e9 34 7a bb
       -0.0063358503 -5.5071025e-05 -0.005662755 -0.003817851
0000e0 05 a6 d5 bb c0 92 88 bb f8 04 40 bb 27 dc d5 bb
       -0.006520035 -0.0041678846 -0.0029299837 -0.0065264883
0000f0 3f b8 fd bb e5 fa 73 bb 92 ee b7 bb 63 47 93 bb
       -0.007742911 -0.0037228402 -0.0056131566 -0.004494594

sequential_4/batch_normalization_4/FusedBatchNormV3 f4 [32]
000000 d0 87 e0 3f 23 6d 1b 3f 92 c8 1d 40 b9 1a ea 3f
       1.7541447 0.60713404 2.4653668 1.8289405
000010 9c 84 97 3f 3c 51 3b 3f 96 a3 ab 3f 57 ba 77 3f
       1.1837344 0.7317083 1.3409297 0.9676871
000020 dc a3 93 3f 85 d2 68 3f d9 9f 10 40 cb 00 34 3f
       1.1534381 0.9094623 2.2597563 0.7031371
000030 ea 2b 08 40 d4 8f 35 3f d2 0d 1a 40 56 c6 e4 3e
       2.1276803 0.7092259 2.4070935 0.44682568
000040 4f a0 e2 3e 69 6b d5 3f e7 2c 0e 40 86 d5 34 40
       0.4426293 1.6673404 2.2214906 2.8255324
000050 da ee f9 3e ef 69 13 40 d9 78 18 40 26 04 c2 3f
       0.48815042 2.3033407 2.382376 1.5157516
000060 df 29 5b 3f a1 cd 12 40 eb 27 bf 3f 14 8e c5 3f
       0.85610765 2.2938006 1.4934057 1.5433984
000070 1d fa 43 3f ee f3 2c 40 43 64 1c 3f b9 7f fa 3e
       0.7655352 2.7023883 0.6109049 0.4892557

sequential_4/batch_normalization_4/FusedBatchNormV31 f4 [32]
000000 8f f8 be be 18 d4 c6 be ef 63 a6 be 0a ca ae be
       -0.3729901 -0.3883369 -0.32498118 -0.3413852
000010 a8 e4 d6 be 67 ca d5 be 47 36 c9 be 79 7c af be
       -0.41971326 -0.41755983 -0.39299223 -0.34274653
000020 f1 f3 ca be dc 50 ae be 35 30 c1 be 44 af b8 be
       -0.39639238 -0.34046066 -0.37732092 -0.36071217
000030 cf 1f b2 be 8e 6c b1 be e3 8c b5 be 5d 17 96 be
       -0.34789893 -0.34653133 -0.3545905 -0.293147
000040 ad 3a b0 be ac b6 e7 be 11 7a c3 be f7 d3 8c be
       -0.34419766 -0.45256555 -0.38179067 -0.27505466
000050 cc ad b9 be 5c 76 bd be 9f 7e bc be cc 57 c4 be
       -0.3626541 -0.37004364 -0.36815354 -0.38348234
000060 9a 4d a8 be aa b6 a3 be 7d 4c dc be f9 19 b0 be
       -0.32871705 -0.319753 -0.43027106 -0.34394816
000070 6c 31 ac be d8 2a 75 be cf 85 a0 be 78 6e a5 be
       -0.33631456 -0.23942125 -0.31352088 -0.32310843

sequential_4/batch_normalization_5/FusedBatchNormV3 f4 [64]
000000 a9 5a 7a 3f 81 c2 d6 3f 78 08 88 3f 77 0f 65 3f
       0.97794586 1.6778108 1.0627584 0.8947672
000010 d2 5d 56 3f 68 4f 4e 3f 1c 2f 82 3f ff 7b a0 3f
       0.8373691 0.80589914 1.0170627 1.2537841
000020 dd 9c 93 3f 18 53 8f 3f 74 ac ce 3f 1d 7b 91 3f
       1.1532246 1.1197233 1.6146379 1.1365696
000030 09 67 63 3f 22 df b3 3f 59 cc 78 3f 4a e8 41 3f
       0.88829094 1.405247 0.9718681 0.7574507
000040 c4 85 a8 3f e9 3b 49 3f 67 00 74 3f 8d 55 06 40
       1.3165822 0.7860704 0.95313114 2.0989716
000050 8d 48 a7 3f 50 14 c4 3f d9 fd 8a 3f 66 3a 96 3f
       1.3069016 1.5318699 1.0858718 1.1736572
000060 39 dc 63 3f 2c be 95 3f 8a 32 9a 3f 7b ad bb 3f
       0.8900791 1.1698661 1.2046673 1.4662317
000070 53 35 8e 3f ab 9f 0b 40 5e b7 a6 3f a1 1c a0 3f
       1.1110023 2.1816204 1.3024709 1.2508737
000080 6b ea 03 40 8f 03 66 3f d5 61 56 3f 37 42 34 3f
       2.0611827 0.8984918 0.8374303 0.70413536
000090 a4 70 b5 3f 5a d8 ad 3f 65 f6 1a 3f 0f e7 d0 3f
       1.4175 1.358165 0.6053222 1.6320513
0000a0 c5 03 92 3f 39 f8 04 40 ec 23 dc 3f b6 e8 53 3f
       1.14074 2.0776503 1.7198462 0.82776964
0000b0 4d f8 8b 3f 14 ac bb 3f 38 0f 93 3f 02 fa 8d 3f
       1.093515 1.4661889 1.1489019 1.1091921
0000c0 d7 22 a1 3f 27 b3 4d 3f 56 70 ed 3f 49 18 01 40
       1.2588757 0.8035149 1.8549907 2.0171072
0000d0 79 11 99 3f b3 56 3e 3f 35 1f 6b 3f 4f 4c 04 40
       1.1958457 0.7435104 0.91844493 2.0671575
0000e0 05 6b 99 3f 11 f6 81 3f 11 0c 6c 3f 7e ee ef 3f
       1.1985785 1.0153219 0.9220591 1.8744657
0000f0 73 4e a5 3f 0e 5c 37 3f 41 dd b4 3f 89 42 17 40
       1.2914566 0.7162484 1.4130021 2.363436

sequential_4/batch_normalization_5/FusedBatchNormV31 f4 [64]
000000 37 a1 05 bf f4 2a ed be df d9 dd be 03 1f 01 bf
       -0.5219912 -0.46321833 -0.43330285 -0.50437945
000010 6d 6a 06 bf 1a a2 27 bf cc c1 bc be 4b 7a d3 be
       -0.5250614 -0.6548172 -0.36866605 -0.4130424
000020 cd c8 0c bf 83 85 df be 21 89 b1 be 54 67 05 bf
       -0.549939 -0.4365655 -0.34674934 -0.5211079
000030 10 8b d9 be ea 2b f1 be 98 62 02 bf 19 1a 14 bf
       -0.4248891 -0.47103816 -0.5093169 -0.5785232
000040 a4 fc ba be 9c 02 0b bf 97 f2 1e bf d2 6a f0 be
       -0.36520875 -0.54300857 -0.6208891 -0.46956497
000050 7f c2 e4 be dd 93 03 bf f3 74 16 bf c2 72 d3 be
       -0.4467964 -0.51397496 -0.587722 -0.4129849
000060 13 f3 11 bf 30 64 fc be 7e c5 16 bf 67 0c f3 be
       -0.57011527 -0.49295187 -0.588951 -0.474704
000070 8e e3 12 bf 73 69 de be 6f e5 cf be bf f7 19 bf
       -0.5737847 -0.43439826 -0.4060473 -0.60143656
000080 eb 64 f8 be 90 13 0d bf ee f3 11 bf 4e 0a 16 bf
       -0.48514494 -0.55107975 -0.5701283 -0.58609474
000090 33 b6 01 bf e7 d4 f7 be ed 9f 1e bf 83 67 c2 be
       -0.5066864 -0.4840462 -0.6196278 -0.37969598
0000a0 f1 70 07 bf aa c1 06 bf 87 df bb be c5 12 17 bf
       -0.5290671 -0.5263926 -0.36693975 -0.59013015
0000b0 64 9c d4 be 44 ec e4 be c1 f8 a7 be 47 26 e3 be
       -0.41525567 -0.44711506 -0.32806972 -0.4436514
0000c0 3f ae 0f bf 11 17 08 bf 8e 1f f4 be 9a 08 91 be
       -0.56125253 -0.53160197 -0.47680324 -0.28326875
0000d0 1d cc c4 be 28 ad fd be f4 d0 f4 be 11 f0 cd be
       -0.38436976 -0.4954617 -0.4781567 -0.4022222
0000e0 5b 73 db be 4b 33 14 bf b0 91 09 bf 12 29 e9 be
       -0.42861447 -0.57890767 -0.53737926 -0.45539147
0000f0 81 1a f0 be 79 1d 2b bf d3 30 09 bf 40 24 df be
       -0.4689522 -0.66841847 -0.53590125 -0.43582344

sequential_4/dense_8/MatMul f4 [64, 2304]
000000 86 7f 9a bc 16 ad 74 3d 79 19 5c 3d c3 cd b4 3c
       -0.018859636 0.05973538 0.05373523 0.022070771
000010 71 bd 0f 3d 05 bc c4 3c 8d b6 0e bc b4 4d 9f bc
       0.035092775 0.024015436 -0.008710516 -0.019446231
000020 fb f7 46 bd f0 03 61 3c 05 1f 4d 3d 62 68 bc 3c
       -0.048576336 0.013733849 0.05007841 0.022998992
000030 9d bd 1a 3d c4 52 65 3c 94 bb 72 3d 76 c7 31 3c
       0.037778486 0.013996784 0.05926092 0.010850778
000040 70 85 4e 3c 58 f0 1c 3d 70 1d a3 3b 3c 65 29 3c
       0.012605056 0.038315147 0.0049778745 0.010339078
000050 3f c0 23 bd cd ab 1f 3d 79 67 42 bd 88 aa 4f 3a
       -0.039978262 0.0389822 -0.04746196 0.00079218345
000060 fd 34 03 bd e5 9e 26 bd b3 5e dc bc 5d 82 85 3c
       -0.032032955 -0.040678877 -0.026900625 0.016297514
000070 77 95 d0 3c d0 ce c9 bc c6 d0 36 bd 5f 7e 18 bc
       0.025461895 -0.024634749 -0.044632696 -0.009307473
000080 eb 7a 13 3d aa 84 11 bd 8a d4 52 bd 65 f5 db bc
       0.036005896 -0.03552691 -0.051472224 -0.026850412
000090 3d d1 79 3c 87 87 43 3c 1e 9d 10 bd 17 9e 6c bc
       0.01524764 0.011934168 -0.03530609 -0.014441988
0000a0 bb 85 55 bb bc 85 db bb ae fb 12 3d 88 e3 3d 3d
       -0.003258093 -0.006699292 0.03588455 0.04635957
0000b0 96 d5 34 3c 34 0d 51 3c 38 3f 83 bb 54 11 0c 3d
       0.011037251 0.0127594955 -0.004005339 0.034196213
0000c0 43 a0 39 bd a5 8b 90 bc 9a 88 cb bc 98 f4 74 3d
       -0.045318853 -0.017644713 -0.02484541 0.059803575
0000d0 0f 35 01 3d e0 5e b9 3c 76 64 35 bc a9 74 22 bd
       0.03154474 0.022628248 -0.011071315 -0.039662037
0000e0 97 38 8b 3c f0 ef 50 3c 7b ee 30 3d c6 84 9d 3c
       0.016994758 0.012752518 0.043196183 0.01922835
0000f0 65 e1 ac bc 7b 0c e3 bb ce a8 56 bd 6e 40 d6 3c
       -0.02110357 -0.006928978 -0.05240708 0.02615377
000100 57 fe f7 bc c7 3a 1a bc f8 05 8f bd 44 b0 1f 3b
       -0.030272646 -0.009413428 -0.0698356 0.0024366537
000110 4c 56 cd bb 2b 5c 9f 3c 00 d7 df bc 85 45 af bc
       -0.006266391 0.019453129 -0.0273242 -0.021395454
000120 ae d3 c7 3c 40 da c8 3c 06 0a 17 bd 70 70 90 bc
       0.024392929 0.024518132 -0.036874793 -0.01763174
000130 7c df 10 bd 0e a5 5c bd f4 8f 55 bd 5d 0c 1f bd
       -0.03536938 -0.053868346 -0.052139238 -0.03883015
000140 47 20 20 3d ce fb 56 3d fa bb 06 3d 44 b9 d9 39
       0.039093282 0.052486233 0.032894112 0.000415275
000150 aa 6c 45 bc f1 5a 0b 3b b7 a2 53 bd 75 ce 2e bd
       -0.012049833 0.0021263922 -0.05166885 -0.04267736
000160 ef 5b 0f bc 5a 71 95 bb 4d a4 34 3d 05 d3 e6 bc
       -0.008749946 -0.0045606317 0.044102002 -0.028176794
000170 a2 51 61 bd 58 26 e3 3c bf 9a 5f bc a8 af 67 bd
       -0.05500949 0.027728245 -0.013647734 -0.056564003
000180 b7 66 27 3d f2 29 de bb 2c b1 45 bc 15 b2 66 bc
       0.04086944 -0.0067799026 -0.012066167 -0.014080544
000190 c6 f9 f9 3b 0c 80 0c 3b 61 25 d8 bc 28 d2 71 3c
       0.0076286523 0.0021438627 -0.026385011 0.014759578
0001a0 46 9f 9e 3c ac 91 c4 3b f8 5a 0f 3d f7 5c 68 3c
       0.019363057 0.0059988108 0.034998864 0.014182321
0001b0 e6 dd 13 bd 00 89 20 bb 46 67 5a bd ed 36 04 3d
       -0.03610029 -0.002449572 -0.053321145 0.032278944
0001c0 37 58 0b bd 6f a5 21 3d 40 21 de 3b 00 f3 80 bc
       -0.034019675 0.03946441 0.006778866 -0.015740871
0001d0 47 f3 7b bc c8 5f 8a 3c f3 4a 3d bd 00 6f 46 bd
       -0.015377826 0.016891375 -0.046214055 -0.0484457
0001e0 47 3f 19 bd 0d 74 9f 3b 5f e2 28 bd 8f c9 03 3c
       -0.03741386 0.0048661293 -0.04123151 0.008043661
0001f0 b5 6d c1 3c 35 0e 9f 3c 4a c4 5c bd 16 5d 4d 3d
       0.023611883 0.019415954 -0.053898133 0.0501376
000200 e7 02 d2 bc 53 35 6c bc 1d 7f 89 3c 41 3a d6 3c
       -0.02563615 -0.01441701 0.016784245 0.026150825
000210 06 be d2 3b 93 1d 91 bd 5b 05 0b bd 40 b0 25 3c
       0.006431344 -0.07085719 -0.033940654 0.010112822
000220 8e ff 8e bc c0 98 dc 3a c8 b0 f5 3c 25 a5 a7 3c
       -0.017455842 0.0016830191 0.029991522 0.02046449
000230 00 c1 80 bc 35 cb d9 bc ac c6 84 3b f2 be bb 3b
       -0.01571703 -0.026586154 0.004052004 0.0057295496
000240 49 59 a2 bc fa 3d 18 3c 0c 95 19 bd 21 52 47 bd
       -0.019817965 0.00929212 -0.037495658 -0.04866231
000250 64 0b 61 bc 62 b4 95 3b 1a 92 3e bd e4 74 04 bd
       -0.013735626 0.0045686224 -0.046526052 -0.032338038
000260 84 c9 91 bd ce 46 31 bd b7 66 18 3d 6f 4e 2d bd
       -0.07118514 -0.043280415 0.03720733 -0.04231113
000270 e7 2b 4f bd fb e0 1d bb d1 5f c3 bc 28 af 25 bd
       -0.050578978 -0.0024090398 -0.0238494 -0.040450245
000280 ef 45 a4 3c ec 19 d3 bc 4d a7 40 bd 61 da 86 bb
       0.020052878 -0.025769196 -0.04703455 -0.0041153883
000290 6b f9 9c bd 76 de 06 3c 1c 44 66 bc fe 62 d6 bc
       -0.0766476 0.00823175 -0.0140543245 -0.02617025
0002a0 7e 62 24 bd 33 f3 84 ba a7 23 ab 3b 17 a8 34 bd
       -0.040132992 -0.001014328 0.005222756 -0.044105615
0002b0 4c a0 66 39 d2 78 7a bc e9 90 74 3a 2d da 3d bd
       0.00021994225 -0.015287595 0.00093294546 -0.046350647
0002c0 d0 f2 45 3d ea a7 95 3c ed 09 f9 bb 5e fb 70 bb
       0.048327267 0.018268544 -0.00760006 -0.003677092
0002d0 ac 3a 0b 3c 50 f3 04 bd 4d e3 88 bc db a4 7e 3d
       0.008497875 -0.032458603 -0.016709948 0.062168937
0002e0 1c c1 45 bc 9a 98 9d bb fe 42 32 3b e6 cf 4c bc
       -0.012069967 -0.0048094513 0.0027200575 -0.012500739
0002f0 7d d2 67 3c 32 e7 8a 3a 0d 32 e3 3b 82 26 f6 3c
       0.014149305 0.0010597466 0.0069334568 0.030047659
000300 20 c1 dd 3c a4 bc 90 3d ec 62 fd 3c b8 ef de b7
       0.027069628 0.0706723 0.030930959 -2.657609e-05
000310 a4 81 ae bc b5 8a 07 bc 5d d9 25 3d 3b 31 82 bc
       -0.021302052 -0.008272816 0.040490497 -0.015892616
000320 8b 69 e3 bb 72 9e 36 3b 94 30 57 b9 d8 c7 dc bb
       -0.006940072 0.0027865437 -0.00020522095 -0.0067376904
000330 15 f4 62 3c 85 1e 22 bd 3e f2 8b 3c 2b dc 2a 3d
       0.013852139 -0.039579887 0.017083284 0.041713875
000340 30 91 e9 bc f7 15 5f bc 5b 56 98 bc 44 36 ae 3a
       -0.028511614 -0.013616077 -0.018595865 0.0013291319
000350 f1 3a d9 3c 90 a6 9e 3c f9 71 3b 3d 03 dd 45 bd
       0.026517363 0.019366533 0.04576299 -0.048306476
000360 38 57 70 3c 1c d6 15 bd db bf 58 bd 5d cc 58 3d
       0.014669232 -0.036581144 -0.052917343 0.05292927
000370 ae 79 57 bd 0a 42 12 3c f0 0e de bc fe 41 26 3c
       -0.052606277 0.008926878 -0.027106732 0.01014757
000380 91 51 86 bc b9 ae 23 bd 33 38 4d 3c d0 23 fb 3c
       -0.016396316 -0.03996155 0.012525606 0.030656725
000390 44 4a ae 3c 37 0c 86 3b c2 76 c6 3c 0a 45 fe 3b
       0.021275647 0.0040908116 0.02422655 0.007759695
0003a0 49 3a 34 bd f8 0d f8 bc a5 db ba bc ec d3 7d 3c
       -0.044000898 -0.030280098 -0.022809813 0.015492421
0003b0 0d 09 13 bd 61 b8 3e 3d 62 8a 2e 3d 65 7d 0e bd
       -0.035897303 0.046562556 0.04261244 -0.034787554
0003c0 22 0d 18 3d 18 96 dd bb 47 80 16 3d c3 63 64 3d
       0.0371219 -0.0067622773 0.03674343 0.055759203
0003d0 bf 56 1f bd 1b f2 31 3d d4 1c 36 bd 34 58 a7 3c
       -0.038901087 0.04344378 -0.044461086 0.0204278
0003e0 01 66 f9 3c 41 35 59 3b e4 a2 34 3c cf 0e 10 3d
       0.030444147 0.0033143314 0.011025164 0.035170373
0003f0 9c 41 e4 3c 77 33 16 bd a7 13 fa bc 37 e6 50 bd
       0.027863316 -0.036670174 -0.03052695 -0.0510008

sequential_4/dense_9/MatMul f4 [2, 64]
000000 a5 52 ef bd 63 ca 6a be db ec 4e be 35 bc 83 3d
       -0.11685685 -0.22928767 -0.2020754 0.06432382
000010 93 e2 0e 3e 5f 70 06 be ca bd 53 be 7b a8 b6 3d
       0.13953619 -0.13128804 -0.20677868 0.08918854
000020 bf 27 19 3c 50 42 e1 3d 21 18 cc bd ef e6 3c 3e
       0.009347855 0.10998976 -0.0996554 0.18447469
000030 c9 25 c3 bd 87 40 ab bc e8 5e 8f be e7 72 b7 3d
       -0.09528691 -0.020904792 -0.28002095 0.08957463
000040 41 56 90 be cd ec 5e 3e 62 fd 86 3e b6 5f bb bc
       -0.28190807 0.2177002 0.2636519 -0.022872787
000050 11 ed b4 3d 19 e1 20 be 01 d4 8b 3e 35 ce cb bd
       0.08834279 -0.15710868 0.27310184 -0.0995144
000060 64 78 29 bd ba 9d d1 bd a5 2f 1d be 3b 47 85 3e
       -0.04137458 -0.10235162 -0.15350206 0.26030907
000070 06 64 58 be 59 6f 15 bd 4e 8c 8f be ad 9a 27 3e
       -0.21131906 -0.036483143 -0.2803673 0.16367598
000080 95 0c 00 3e e1 32 2a be 27 7f 8b 3c 92 da 82 bd
       0.125048 -0.16620971 0.017028404 -0.06389345
000090 8b 48 14 be 0b 03 2d be 8a 3b 6d 3e f4 33 9c bd
       -0.14480798 -0.16895692 0.23167244 -0.07627097
0000a0 d4 cb 70 be 96 51 65 3e ed 68 46 be fb d1 57 be
       -0.23515254 0.22394404 -0.19375964 -0.21076195
0000b0 f6 62 86 be 9e 24 91 3c 3a 83 28 3e 49 84 82 be
       -0.26247376 0.017717656 0.16456309 -0.2549155
0000c0 94 00 c7 3d a8 6a b5 3d 2c 4e 01 be e2 54 0f 3d
       0.09716907 0.08858234 -0.12627476 0.03499306
0000d0 b5 3c 6d be ff 1f 00 3e 7f ad 71 3e 33 cb 5d 3e
       -0.23167689 0.12512206 0.2360134 0.21659546
0000e0 4e 9c 1f 3d 06 20 ec bd 40 48 92 be c6 e2 93 3e
       0.038967423 -0.115295455 -0.28570747 0.28883952
0000f0 40 98 3a be 6f ab 67 3e d0 3a 47 be 12 b0 b5 bd
       -0.18222141 0.2262399 -0.19456029 -0.08871473
000100 b6 1e ba 3b 6f ea 33 be ed 6b 5f 3c 14 69 6f 3e
       0.0056799306 -0.17569898 0.013636571 0.23379928
000110 4c e3 0b 3e 9c e8 c7 bc 5b d3 93 3e c0 06 23 be
       0.13660926 -0.024402909 0.2887219 -0.15920544
000120 68 64 2c 3e 68 b7 61 be 0b 9b 78 be 19 ca a7 3d
       0.16835177 -0.2204262 -0.24277894 0.08192844
000130 69 0a 4d be 1b 3e e1 3d 67 6a f9 3d b4 a8 4f be
       -0.20023502 0.10998174 0.12178498 -0.20279199
000140 88 b7 ea bd 8e 95 5c be 24 65 9d 3c 70 81 86 3d
       -0.11460787 -0.21541426 0.019213267 0.06567657
000150 ce bc 0b be 8e ac 6e 3d e5 07 ea 3d d2 66 e6 3d
       -0.13646242 0.05827003 0.11427287 0.1125008
000160 fd 28 62 be 2d 6e 0f bd 35 72 72 3e 2f f0 5e bd
       -0.22085948 -0.03501718 0.23676379 -0.054428276
000170 f4 f4 40 3e 92 bc 06 3c dc a4 82 3e 11 9d ea 3d
       0.18843442 0.00822367 0.25516403 0.11455739
000180 7b 53 4b be 5e 9f 2e 3c 4c a3 56 be bc 40 91 be
       -0.19856064 0.010658113 -0.2096073 -0.283697
000190 ab 4a 58 3e 35 29 8e 3e 16 b5 17 3e 5e ab 88 be
       0.21122234 0.27765813 0.14815173 -0.26693243
0001a0 d2 6f c0 3d 40 e5 46 3e a3 b4 38 bd 8e 5f e9 bd
       0.09396328 0.1942339 -0.045094144 -0.11395179
0001b0 90 24 83 3e 01 aa 96 3d 1c 3f 77 3e 39 fd 75 be
       0.25613832 0.073566444 0.24145168 -0.24022378
0001c0 84 9e 25 3e a6 e3 81 be 0c 52 1f be bd e2 89 3e
       0.1617375 -0.25368994 -0.15558642 0.269308
0001d0 ae df 24 3e 06 df 75 3e 98 77 71 3e 5f 2b ed 3d
       0.16100952 0.24010858 0.23580778 0.11580538
0001e0 f0 42 06 3d 3d 16 45 be 69 21 91 bd c2 e6 e7 bd
       0.03277868 -0.19246764 -0.070864506 -0.113233104
0001f0 8e 30 52 3d 52 ba ef 3d dd 3c ff bc 57 60 7e bd
       0.051315837 0.1170546 -0.031156952 -0.062103596
